lib/spiral_model/model.pth (torch, 38065 bytes, 8 tensors)

net.0.weight f4 [64, 3]
00000000: bb7e 30bf e12c df3e 054d 5bbe f9c5 973e
00000010: 2d7c d13e 5dc0 473f 6b9b 35bf 6363 9a3e
00000020: f589 1bbf 81f6 42bf 3bfe 1cbf 14e6 953e
00000030: fde2 533f 2e17 213f d61f 33be 7aa8 1b3f
00000040: 2d38 ccbd eac6 25be 38f8 4f3e 4e63 98bd
00000050: 849e 2d3f b10e e2be 4921 bc3a 7959 b6bd
00000060: c809 273e a910 05bf 457b f7be 7310 54be
00000070: 70aa 0b3f cd95 7bbe b9e6 393f 101d 493f
00000080: 27b5 9e3e 939f 043f ed0d 323f 6515 b53d
00000090: 3f9c bcbe 3fb5 403f cd3a 8f3d 7972 25bf
000000a0: 2921 25bf 9fc5 e4be 40a8 ae3e 0f92 89be
000000b0: f245 153f 3ef9 99be 7948 66be dbbc 83be
000000c0: 4ab0 e3bb db16 393f 456f 94be da9d c83d
000000d0: 615c e2be 0a1e d33d db8e 5bbc 29e2 a1be
000000e0: f05e f03e 5303 6ebe 35db 5c3f f9c4 103f
000000f0: a8da 1bbf 694d 10be b3b3 13bf 0f8c 11bf
00000100: 0e83 943e 066b 2f3f 6962 b93e cfda 14bf
00000110: 6bf4 2fbe 5b6f 8ebe c560 3fbf b67b 07bf
00000120: 680c e03e 1d85 1fbf 0720 23bf 5862 87bc
00000130: bd38 85bc 838d 52bf f3b7 893f 9ffe 45ba
00000140: 0e01 f23d aa43 bdbf e5dc 663f 548f c1bd
00000150: c7d4 97bf e10e d3be 76b6 b83e 168e abbf
00000160: 168d a33d 5df0 a33e 6668 1a3f 5810 ad3e
00000170: f266 123f 5df4 1ebf 18eb c13f 3588 8c3c
00000180: a02f febe c6fe 9f3e 4f7a 93be ceb2 013f
00000190: 4278 ad3e 6105 bb3c a911 7ebf 99ca a9bf
000001a0: 78c5 243f 9de4 43bf 6406 173f 3c20 343f
000001b0: ddb8 d33e 9614 593f 3870 61be c519 853d
000001c0: 4401 c73e d7df 9fbe 6fb8 073f 12df b23e
000001d0: ade1 74be b4e0 2fbe a112 873e 7f9e 6cbf
000001e0: 05a7 dc3e f3cd 1e3f 6ce1 33bf 9a5a 26bf
000001f0: e041 d8bb eb74 063e 197f 96bd 03d5 0cbf
00000200: c805 083f 36e6 9bbe 202f fb3e f48a a23e
00000210: b466 e8bd 6bc7 01bf 74b8 ebbd e307 dfbe
00000220: 3dfa 7abe 713e 313e 83d9 f9be 2319 75be
00000230: 53c2 943d 0444 0bbf be22 4bbf d538 29be
00000240: adf9 13bf d18d 04bf 1ac9 2abf 80d1 b0be
00000250: 9f93 3f3f faa2 55bf 0b02 5e3f 83ed 80be
00000260: df3a 2cbd 3b84 14bf 3c90 583f d977 c6bd
00000270: eaea 103f 40ea 06bf 3a54 b3be c4d7 2ebf
00000280: 05de 3d3f f378 163f 3c7a c73e e552 113d
00000290: ee25 af3e c747 da3e 2895 09bf a493 9abe
000002a0: 3bab 163e fa0a edbe 06a9 343f 4394 b93e
000002b0: 340c 38be 9529 4c3e cdaa d43e 8a8f aa3f
000002c0: 07da 743e 3d83 5dbf 0a26 a0be a928 a0be
000002d0: b084 243f c5a1 acbd d37b 1f3f 62cf f73e
000002e0: 1085 9e3e 4854 dc3e edaf b6bd 46c5 36bf
000002f0: f203 603e a0b6 91be 7ae6 e53d 4932 f1be
-0.68943375 0.43588927 -0.214161 0.2964323 0.4091505 0.780279 -0.70940274 0.3015395
-0.6075738 -0.76157385 -0.61325425 0.29277098 0.8276823 0.62925994 -0.17492613 0.6080395
-0.09971652 -0.16189161 0.20309532 -0.07440816 0.6782 -0.44151834 0.0014353181 -0.08903784
0.16312325 -0.51978546 -0.48336235 -0.207094 0.5455694 -0.24568863 0.7261768 0.7855997
0.30997583 0.5180599 0.695525 0.08841971 -0.36837956 0.7527656 0.06993637 -0.64627796
-0.64503723 -0.44682023 0.3411274 -0.26869246 0.58309853 -0.3007297 -0.22488584 -0.25730023
-0.0069485055 0.723005 -0.28991142 0.09795733 -0.44211105 0.10308464 -0.013400759 -0.3161786
0.46947432 -0.23243456 0.86271983 0.56550556 -0.6088052 -0.1409203 -0.57696074 -0.5685434
0.29006237 0.6852268 0.36207893 -0.58146375 -0.17183082 -0.27819332 -0.74757034 -0.5292314
0.43759465 -0.6231249 -0.63720745 -0.016526386 -0.016262406 -0.8224718 1.0759262 -0.0007552895
0.118166074 -1.4786274 0.9018081 -0.09451166 -1.186181 -0.4122229 0.36076707 -1.3402736
0.079858944 0.3201932 0.6031555 0.33801532 0.5718833 -0.6209162 1.514987 0.017154792
-0.4964571 0.31249064 -0.28804252 0.5066346 0.33880812 0.022829713 -0.992457 -1.3264953
0.64363813 -0.7652071 0.58994126 0.70361686 0.41351977 0.84797037 -0.22015464 0.06499056
0.38868153 -0.31225464 0.530158 0.34935814 -0.23914213 -0.17175561 0.263814 -0.92429346
0.43096176 0.62033004 -0.7026584 -0.64981997 -0.00659965 0.13130538 -0.07348461 -0.5501253
0.5313382 -0.30449075 0.4905939 0.31746638 -0.11347714 -0.5069491 -0.11509791 -0.43560705
-0.24509521 0.17308976 -0.4879876 -0.2393537 0.07263627 -0.5440066 -0.7934989 -0.16525586
-0.5780285 -0.51778895 -0.66713107 -0.34534836 0.74834627 -0.8345181 0.8672187 -0.25181207
-0.04204833 -0.5801427 0.84595084 -0.09690828 0.5660845 -0.5270119 -0.35025197 -0.6829798
0.741669 0.58778304 0.38960445 0.035479445 0.34208626 0.42632887 -0.5374322 -0.30190766
0.14713757 -0.46297437 0.7057041 0.36245927 -0.17973405 0.19937737 0.4153656 1.3325055
0.23911296 -0.8652838 -0.31279022 -0.3128102 0.64264965 -0.084292926 0.62298316 0.48400408
0.30960894 0.43033051 -0.08920274 -0.71394765 0.21876505 -0.28459644 0.112256005 -0.47108677

net.0.bias f4 [64]
00000000: d14e 09bf 08da b3be a74d c5bc eea6 f03e
00000010: a4f7 583e 064d 6abe 858a a0be 5462 8cbe
00000020: 2518 c03d 805d 8fbe e009 e3be 70eb 20bf
00000030: b5ee ecbe a1d9 83be 884d 56be 2bdf d53e
00000040: d57d ccbd d7ab ebbe de66 813e 43a1 c63e
00000050: 398d 2f3d 6f1d 2bbe 07ed bdbe 0d67 3ebd
00000060: 3abb e73c 9cf2 403f ee1e ba3e 05f7 2a3f
00000070: d07d 493c 6224 07bf 48f3 443e 78c2 cabe
00000080: 7a0c 3b3f ddcd e0be 8483 41be 5966 53bd
00000090: c0b9 b73e 7fb3 273f 783f 1fbe 2ff7 bd3d
000000a0: f456 8c3e 2d72 093f 862a 3cbd ea3f c63e
000000b0: 74c3 9fbe 6003 003f 4398 00bf c054 26bf
000000c0: 9790 113e d5b8 003e 7c65 213f a6ee 9e3e
000000d0: 40d5 62be e6ff 6b3e 12e0 0d3f a446 6f3e
000000e0: 42cc 00bf a7d2 bd3e 54fe 123e fe31 df3e
000000f0: fefb 6a3e 41c7 803e cf43 cd3e 72df 903e
-0.5363589 -0.35127282 -0.02408488 0.47002357 0.21188217 -0.22880945 -0.31355682 -0.27418768
0.09379605 -0.28001022 -0.44343472 -0.6285925 -0.4627587 -0.25751975 -0.20928013 0.41771826
-0.09984938 -0.4602954 0.25273794 0.38794908 0.04285929 -0.16710447 -0.370949 -0.046484996
0.028287519 0.7537019 0.36351722 0.6678317 0.012298062 -0.5278989 0.1923343 -0.39601493
0.7306591 -0.4390706 -0.18897825 -0.05161128 0.35883904 0.65508264 -0.15551555 0.09275662
0.2741009 0.53689843 -0.04593899 0.38720638 -0.31203806 0.5000515 -0.5023233 -0.6497307
0.14215313 0.12570508 0.6304548 0.3104145 -0.22151661 0.23046836 0.5542003 0.23366791
-0.5031167 0.37074777 0.14354831 0.4359283 0.2294769 0.2515202 0.40090796 0.28295475

net.2.weight f4 [64, 64]
00000000: c543 d03e 1a6f 1abe b677 ebbe e0e1 93be
00000010: c0cc e63d 653d 0c3f e8e8 d2bc f0ee c5bc
00000020: 9d90 6cbe 5fe8 8d3e 6803 4d3e 332a 4bbf
00000030: b8b1 c7bc 7fa5 9b3d 9a60 c03d c7a5 b53e
00000040: c494 01bf 4cf0 ba3d 2705 f13c baff 503d
00000050: aa00 a8bd 373f e5be 6874 05bd 9091 8bbc
00000060: 4a8e 4ebe 511b d93e cecd 8d3d 8b18 203e
00000070: 611c 723d 9601 ebbd ab7a 263e 4d9b ab3e
00000080: 81eb 6e3e 61b3 f03d 80cb 193e f2eb 68be
00000090: 5054 9d3d 885c 3e3e c18d b53e fd74 61be
000000a0: 9161 0fbe ac62 16be 947c 34be 33cf 06bd
000000b0: fc82 a6bc 9337 24be 611b 6a3e 9683 193e
000000c0: ea0e 2cbd 95c0 163d cc76 06bc a1de ad3d
000000d0: c418 153e d6bc 36be c784 e73a 6001 773e
000000e0: 7182 f2be 83fd ccbc 76e9 fcba 3019 213e
000000f0: 6d80 903d 7b55 6cbd 8e3c a23c 5dae 04be
00000100: d139 a83e 631e 32be fdb2 873e 54b6 fb3c
00000110: cca5 6e3c f053 b73e 37d3 6fbd 464b b73e
00000120: 7484 80be 3276 a93e d0ef eabe 4455 523e
00000130: c269 173f a7a7 213d 9174 1a3d 1bae 61bd
00000140: 16d7 993d 975d 723e 67c3 e03c 2da8 24bd
00000150: 4522 0dbe 1ae6 fe3d 0de5 013e 89f8 dabd
00000160: dd86 04be de89 393f 37d3 e43c 6495 ac3e
00000170: abe4 983e 4316 46be ef4d 3ebd e97a 04be
00000180: 4014 243e bf9a 873e d815 583d 2b31 bb3d
00000190: 8139 b73d 5b48 c73d 8d9b ef3e ebef cfbd
000001a0: 324d 273e 279d 043e 8a29 0dbd ec8d be3d
000001b0: 2ad0 e5bd 4d2e af3d a93e 193f 0280 16be
000001c0: ad35 1f3e 59ac a43e 57b5 83be c261 893e
000001d0: 71ec 1d3e 8406 99bd b9ff 93bc 28ee c23e
000001e0: 303d 99bd da75 983c 8e70 3d3b a4f1 d43d
000001f0: 6445 22be de6f 81bc 383b 2e3d 2212 b43d
00000200: 328e 56be 7fb9 86bd 852f 933d 49ab fe3d
00000210: e5d5 24be f20f 06be 8ebf c03c 8bb6 af3e
00000220: 95c4 24be 4fc4 30bd 189d 6c3e b90c 04be
00000230: 47b1 51be 5dfc f9bb f66c a73e ba36 493d
00000240: c9cd 253d bc0d 90be 70ce 46bc feda a7bc
00000250: c758 423e 0e01 883d 1cc1 a83c 5b10 64be
00000260: 4c54 703d a710 7dbe 7eab c6bd 7b34 5dbe
00000270: 651b 17be 34d9 42be bd91 883d 6da0 bb3d
00000280: 8f7b 81bd d292 a6bf 1138 54bd e1ee ccbc
00000290: 1ca8 4bbe 6ccb 60bd c33d 09bf 04d0 4abe
000002a0: 11c3 5fbe 7918 96bd 63b5 663d 5a83 103e
000002b0: d41a 27be a54d cf3d 2ebd 403f 09c8 823e
000002c0: 82aa 4abe a210 a53e b130 82bd 5d5a 2b3e
000002d0: 385c 07be face 643d ec80 b73d 37eb e23d
000002e0: 71ad 37bc 72ff 79bc 0592 343e 7e75 543e
000002f0: 4a2c 123e f071 95bd 3a85 8dbd 21e2 ce3e
00000300: 60f3 693d 4083 b03c cc6a 71bd 0090 86bd
00000310: e044 e13d 7dea 6a3c e643 e9bd c4b0 cdbd
00000320: fc88 f2bd cef4 f13d ca64 d1bd f8c6 b0bc
00000330: d8fa 793d 4a4a d1bd 943d 0b3d 3db1 2a3d
00000340: 2bd4 a7bd beed b2bd 382d 90bc 743f e8bc
00000350: a0ba 053d 801d 9abb 4a3b 953d 4850 913d
00000360: 8418 72bd 065d d63d 9335 4e3d a765 ccbd
00000370: a879 223d 18e0 26bd bfe4 4dbd a0bf c9bc
00000380: 88fd b4bd a2d6 76bd 3467 903d a894 c43d
00000390: ef70 bf3d e253 233d 6f07 fcbc 5c43 46bd
000003a0: 04de c6bd 3165 9a3d 68fe cfbd 89c1 08bc
000003b0: 4601 febd f1b1 c2bd f0d8 523c a087 e03b
000003c0: a2ed eb3d 0a1d efbd 1261 0dbd 164d b33d
000003d0: 6651 c9bd 8eb3 afbd 917b 873d a7e1 97bd
000003e0: c004 f8bb 568a 7e3d bdbc 1fbd 3016 a63d
000003f0: 0e47 e6bd 2ef0 203d 3dc9 90bd 775a 063a
0.40676704 -0.15081444 -0.4598977 -0.28883266 0.11269522 0.5478118 -0.025745824 -0.024161786
-0.2310204 0.27716348 0.2002083 -0.79361266 -0.024376735 0.07599925 0.09393425 0.3547804
-0.50617623 0.09127864 0.029421402 0.05102513 -0.08203252 -0.44774792 -0.032581717 -0.017037183
-0.20171466 0.42403653 0.0692402 0.15634362 0.059109095 -0.11474912 0.16257732 0.33516923
0.23332025 0.11752964 0.15019035 -0.22746256 0.07682097 0.18589985 0.35459712 -0.22017284
-0.14002062 -0.14686078 -0.17625648 -0.032912444 -0.02032613 -0.16036825 0.22862007 0.14991602
-0.04200641 0.036804754 -0.008207034 0.08489729 0.14560229 -0.17845473 0.0017663472 0.24121618
-0.47365144 -0.025023228 -0.0019295651 0.15732265 0.07055745 -0.057698708 0.019804265 -0.1295714
0.3285661 -0.17394404 0.26503745 0.03072659 0.014565896 0.35806227 -0.05855104 0.35799617
-0.25101054 0.33097988 -0.45886087 0.20540339 0.5914575 0.039466526 0.037708823 -0.05509768
0.075117275 0.23668514 0.027436925 -0.040199447 -0.13782604 0.12446232 0.12685032 -0.106919356
-0.12942071 0.72475994 0.027932746 0.33707726 0.2986196 -0.1934443 -0.046461042 -0.12937512
0.1602335 0.2648525 0.052755207 0.091402374 0.08946515 0.097305976 0.46798363 -0.101531826
0.16338041 0.12950574 -0.034463443 0.09304413 -0.11221345 0.08553753 0.59861237 -0.14697269
0.1554782 0.3216274 -0.2572429 0.26832396 0.15422226 -0.07471946 -0.018066274 0.38072324
-0.07482374 0.018610884 0.00289062 0.10397652 -0.15846783 -0.015800413 0.042536944 0.08792521
-0.2095268 -0.06578349 0.07186798 0.12435014 -0.1609722 -0.1309202 0.02352884 0.34318957
-0.16090615 -0.043155964 0.23106802 -0.12895478 -0.20477782 -0.007628961 0.32700318 0.049124457
0.040479455 -0.28135478 -0.0121341795 -0.020490166 0.18979178 0.06640826 0.020599894 -0.22271864
0.05867414 -0.24713384 -0.09700678 -0.21602051 -0.14756544 -0.19028169 0.06668422 0.09161458
-0.06322395 -1.3013556 -0.05181128 -0.02501625 -0.19888347 -0.0548815 -0.53609866 -0.19805914
-0.21851756 -0.073288865 0.056325328 0.14112607 -0.16318828 0.101222314 0.75288665 0.2554324
-0.19791606 0.32239252 -0.063569434 0.1673369 -0.13218772 0.05586145 0.08960137 0.1108002
-0.011210785 -0.015258657 0.17633827 0.20747945 0.14274707 -0.072971225 -0.069101766 0.40406898
0.057116866 0.02154696 -0.05893974 -0.065704346 0.10999465 0.014338133 -0.11389904 -0.10043481
-0.11842534 0.11814271 -0.10224302 -0.02157925 0.06103024 -0.10219248 0.033994272 0.041672934
-0.08194765 -0.08736752 -0.017599687 -0.02835057 0.032648683 -0.0047032237 0.07286699 0.070953906
-0.05910541 0.104669616 0.05034406 -0.09980326 0.0396668 -0.040741056 -0.050266977 -0.024627507
-0.0883742 -0.060263284 0.070509344 0.095986664 0.09347712 0.03987492 -0.030765263 -0.048404083
-0.09710315 0.07538832 -0.10155946 -0.008346924 -0.12402587 -0.09506596 0.012869105 0.0068521053
0.11519934 -0.11675461 -0.0345164 0.08754937 -0.09829979 -0.08579169 0.06615365 -0.07416087
-0.0075689256 0.062143646 -0.038998354 0.08109701 -0.11244021 0.039291553 -0.07069633 0.00051251746

net.2.bias f4 [64]
00000000: 2563 41bd 137c 95bd 9872 983d 05f1 d8bd
00000010: aca7 4c3d b3af 2a3d 2aed 1dbc c9be cd3c
00000020: 56fa b53c 8c6d 4bbd e275 9c3d d15c 46bd
00000030: cc28 05be ef29 3f3d 9947 da3c bf1f c9bc
00000040: 5e3c 113e f708 81ba 6e5c 2b3e 4b8b f93d
00000050: 60ac b3bd b573 7bbd 8c5f a53d 3f6f 183e
00000060: d64b e13c fbdd ad3d 544e 0a3e 1ecc 43be
00000070: f712 043e 66fd f1bc 580a a53d 773a 60bd
00000080: d91b 8139 c0e1 f33d 4f8e 1fbd aea6 a3bc
00000090: 047f 593d bc6e 003e 0e27 d33c 95fa 713e
000000a0: 9356 a6bc 2bfe bc3c 0ba3 26be 2e49 333d
000000b0: 81e2 2d3e de1d 1fbe 6635 363b a42c ba3c
000000c0: e2ba 3bbd 4d4b d93d 9891 8e3d 8704 8a3d
000000d0: 4624 2bbd 500e 893d a0b2 6fbc fce2 833b
000000e0: e4bb 91bd 3b19 ca3d dd12 e73d d8ab bcbc
000000f0: 1544 90bd 2ea6 cd3d dc1a 153e 1727 2f3e
-0.047213692 -0.07299056 0.07443732 -0.10592846 0.04996459 0.041671466 -0.009639064 0.025115388
0.022214096 -0.04966502 0.07639672 -0.04842836 -0.13003844 0.04667085 0.026645469 -0.02455127
0.14183185 -0.0009844591 0.16734478 0.12184771 -0.08773112 -0.061389644 0.08074865 0.14886187
0.027501982 0.08489605 0.13506442 -0.19120833 0.1289786 -0.029539775 0.080586135 -0.054743256
0.00024625545 0.11908293 -0.038954075 -0.01997694 0.053099647 0.12542242 0.025775459 0.23630746
-0.020304954 0.023070415 -0.16273133 0.04377096 0.16980936 -0.15538737 0.0027802824 0.022726364
-0.045832522 0.106100656 0.069613636 0.06739145 -0.04178264 0.06692183 -0.01462999 0.0040248614
-0.071159154 0.098680936 0.11282895 -0.02303116 -0.070442356 0.10041462 0.14561027 0.17104755

net.4.weight f4 [64, 64]
00000000: f33d 7bbe 166a 763d 1333 2e3e 00ba f13b
00000010: 02cf 813d 5322 ca3e 2972 b8bd 4bb1 9ebe
00000020: ba84 66bd e8b2 b13b 408e 57bd 3f7a a63e
00000030: 4a90 83c0 1a95 8bbc ab5c 0b3e a62d 7c3e
00000040: d956 003e 02e8 f4bc 1b4a 1fbe fc59 763e
00000050: 46de a93d 9624 9a3e 4976 3bbe 2907 573e
00000060: 1cbf 7fbe c8d1 38be 7a8b e9bd e9e3 14bf
00000070: 95c7 e83e d0cb 393e 7dec 55be a24f 05be
00000080: 4544 ea3d 8363 6cbf 5966 6b3d b16c 113f
00000090: 3949 a3be 2b11 94be a5da 5a3e ea08 30be
000000a0: 67d0 333e 45db 33bf 964a bc3e 27f6 53be
000000b0: c3aa 0c3f 5b05 df3e 7b06 3f3e 24ee 57be
000000c0: cae3 d9be 5719 c23d c8e2 4e3e ed08 be3c
000000d0: 4d8b 69be 84d6 48be fc0b 453e c68f 14be
000000e0: 62a2 c13e ea59 0f3d de58 92be 5e3f 603e
000000f0: 0489 1fbe 75aa cd3e d367 d7bb 9795 5abe
00000100: 16ba babd caff cc3c f299 203e f0d9 493d
00000110: 09ae b6bd 30dc e53d 5ea9 aabb b63d 39bd
00000120: 2b31 2dbe f58d 033d 7cfb b3bd 8aba 81be
00000130: 4330 95bf d007 c1bd 7461 343e d642 d33e
00000140: acb9 223e 86ab cc3c a910 203d 64bb 8c3d
00000150: 6308 803e 977e 5ebe 01f1 34bd 6c98 5a3e
00000160: b59b 0fbe e6d8 313d 4fe6 68be 996d 17bf
00000170: 86c6 823e eded 8638 b9f6 7abe 185e 64be
00000180: 4a96 e8bc 236d 13bf 8951 ad3d b614 4e3e
00000190: b0a7 483e 1802 25be 7cc6 17be ffed 8f3d
000001a0: 1df8 6d3e ad59 923e a086 123f 6efe 91bb
000001b0: 9cb3 833e 0075 9cbe ab81 8a3d 90d8 73be
000001c0: 7942 373e 5901 b53d 8e7f 04bf af19 7a3e
000001d0: ad38 293d 36a5 37be 445d 963d eff8 393c
000001e0: f628 f33d 706a 243e 2d67 2cbe 435b 88bd
000001f0: e4bf 02be de14 173e c0c7 c23d 8a8b a6be
00000200: b1db 1cbf 87ba 813e ee48 333e b034 083c
00000210: 629f 063e a413 fd3e 5f30 093d 55ff 8dbd
00000220: 0941 5fbc 63ed 97be b150 793d 5cde 8abe
00000230: 1a6b 39c0 b7e8 183c d01b a93d c32c c2bd
00000240: 586d d5bd 25f3 c83b ae0b 55be 9aee 3c3e
00000250: 56a9 12be 9e18 053f 458c 9ebe 7f2a ed3d
00000260: b80b 1ebe d7dc 893d f189 3a3e ec1e b83d
00000270: 2285 9c3d 9bb2 393e b0c5 bbbe 1c5a 273e
00000280: e812 1b3e c56c 01bc bf39 183e baf1 313e
00000290: 37b5 62bd 8657 dfbc db1d a4bc 4085 54bd
000002a0: ec0f aebe 86bf bdbf 688b 85be 9956 2cbe
000002b0: 9fb4 22bd ea52 fc3b dd62 2dbe 7286 7a3d
000002c0: ef23 d0bf 091c 463d 4e40 923d 8901 9cbc
000002d0: cd98 1dbb 68c6 0e3e 93c9 ce3b 8d61 ad3d
000002e0: 7a2d e03d 027b 973d 666d 0fbe 182b 35be
000002f0: bd81 2c3d ec1a fd3d 6a88 2f3e fd87 503e
00000300: 9920 803d 2c34 ce3d 4c95 ba3c 5f81 813d
00000310: 26ce 0ebd 5312 44be bbd2 5cbe 44a5 783c
00000320: a712 89bc 4a56 643e 478a e43d d791 3e3e
00000330: d68d 983e 48bc 0a3d af6f ac3d 73f4 ddbc
00000340: bd7d 6f3d fba4 7ebe e82c 383e 6fd4 e83d
00000350: c777 9ebd f4ca 5cbe 33b0 943e 1e8e ac3c
00000360: 06f0 2abd 07f6 ae3d 430f 7c3d 1f57 4b3d
00000370: d16f 343d 779b a7bd 1307 833e 2269 e5be
00000380: 4770 c8bd 7131 6b3e 837f 8abe 1faa b8bd
00000390: 0522 e7bd d1f2 0d3d 286c 833d c0b8 493e
000003a0: f37b 383e ef8a 84bd f87d e1be e5e5 943e
000003b0: ded2 cb3b c491 163e 354b 083d 2b60 413e
000003c0: e202 e0bd e981 8fbe e2af 323d b721 0bbe
000003d0: f368 61bd a4b6 94be 8e4f ca3d 21e6 c03b
000003e0: 8ca1 313d f254 233c 9580 3f3e e512 2d3e
000003f0: 65da e73d fbee d7bc 0a6a a1be 350b 5c3e
-0.2453535 0.060159765 0.17011671 0.0073769093 0.06338312 0.39479312 -0.09006149 -0.3099464
-0.05627892 0.0054229386 -0.052625895 0.3251514 -4.1113634 -0.01703887 0.13609569 0.24626788
0.1253313 -0.029895786 -0.15555613 0.24057764 0.082943484 0.30106038 -0.18306841 0.20998825
-0.24975246 -0.18048775 -0.11403556 -0.58160263 0.4546477 0.18144155 -0.20890994 -0.13018659
0.11438803 -0.9233934 0.057470653 0.56806475 -0.31891802 -0.28919348 0.21372469 -0.171909
0.17559968 -0.70256454 0.36775655 -0.20699368 0.5494806 0.43558773 0.18654816 -0.21086937
-0.42556602 0.094774894 0.20203698 0.023197616 -0.22807045 -0.19613081 0.19242853 -0.1450797
0.378192 0.034997858 -0.28583425 0.21899173 -0.15579611 0.4016911 -0.006573656 -0.21346126
-0.09117524 0.025024313 0.15683725 0.049280107 -0.08919913 0.11223638 -0.0052081784 -0.045224868
-0.16913287 0.032117803 -0.08788201 -0.2533763 -1.1655353 -0.09425318 0.176153 0.4126193
0.1589114 0.024984132 0.03907839 0.068716794 0.250064 -0.21727978 -0.04417515 0.21347207
-0.14024241 0.04341974 -0.22744106 -0.5915161 0.25542086 6.433935e-05 -0.2450818 -0.22301519
-0.028391976 -0.57588404 0.08462817 0.20125088 0.19595218 -0.1611408 -0.1482181 0.07027816
0.23239179 0.28584042 0.5723667 -0.004455379 0.2572297 -0.30558014 0.067630135 -0.23813081
0.17896451 0.08838148 -0.51757133 0.2442386 0.041313816 -0.17934117 0.07342008 0.011350854
0.11873047 0.16056228 -0.16836233 -0.06658032 -0.12768513 0.14754054 0.095107555 -0.32528335
-0.6127272 0.25337622 0.17508289 0.008313343 0.13146737 0.49429047 0.033493396 -0.06933466
-0.013626345 -0.296733 0.06086797 -0.27122772 -2.897162 0.009332827 0.08257258 -0.09481194
-0.10421246 0.0061325007 -0.20805237 0.18450394 -0.14322409 0.5199069 -0.30966392 0.11580371
-0.15434158 0.06731575 0.18216683 0.08990273 0.076425806 0.18134539 -0.3667426 0.16342968
0.15143931 -0.007899468 0.14865778 0.17377368 -0.0553486 -0.027263414 -0.020033767 -0.05188489
-0.33996522 -1.4824073 -0.2608292 -0.1682991 -0.039723035 0.007700314 -0.16932245 0.061163373
-1.6260966 0.04836658 0.071411714 -0.0190437 -0.0024047375 0.13942873 0.0063106506 0.08465872
0.10946174 0.07396509 -0.14006576 -0.1769222 0.042115916 0.123586506 0.17141882 0.20364375
0.062562175 0.10068545 0.022776268 0.06323504 -0.034864567 -0.19147615 -0.21564762 0.015176121
-0.016732527 0.22298542 0.11159187 0.18610321 0.29795712 0.033870965 0.084197395 -0.027094102
0.058469523 -0.24867623 0.1798588 0.113686435 -0.077376895 -0.21561795 0.2904068 0.02106386
-0.04173281 0.0854302 0.061537992 0.049643632 0.04405195 -0.081839494 0.25591335 -0.44806772
-0.0978704 0.22968079 -0.2705041 -0.09016823 -0.112857856 0.034655396 0.064171135 0.19699383
0.18016033 -0.06471812 -0.4404142 0.29081646 0.0062202057 0.14704043 0.033274848 0.18884341
-0.1093805 -0.280288 0.043624766 -0.1358708 -0.055031728 -0.29045594 0.09878455 0.0058868085
0.043366954 0.009968983 0.18701394 0.16901739 0.11320952 -0.026359072 -0.31526214 0.2148865

net.4.bias f4 [64]
00000000: c270 2d3b 2de9 ce3b 8530 27bc 2500 133c
00000010: 4236 8b3c 9486 f1bc 5c95 07bd 7d93 41bd
00000020: 6308 093e 7c81 513b 6109 bcbd 6803 87bd
00000030: 659f c8bd 2c20 78bd a4b9 ac3d 8f4b 1e3e
00000040: d1ed f2bd 8233 e23d 0fac 03be 017f a2bd
00000050: 4a0d 50bd 77bb 273d 5a3c a0bd 5c3c 7cbc
00000060: 8850 b3bd fe7f c53d 7b56 363d d520 f23d
00000070: 53ee fbbd e790 2b3c 0c90 c73d 43a9 04bd
00000080: aa22 4fbd 3775 18be c5f4 9a3d 87ea 0dbe
00000090: 6941 38bd d3ba 413d 20b2 82bd 9ed9 37bd
000000a0: 2f7d 0abe ef5a 94bd ae73 febd 2379 393d
000000b0: 61d9 133d b388 723c ff41 dbbc 4346 9d3d
000000c0: 45f2 743c df16 e8bc cd19 253d 69a5 3c3d
000000d0: a291 6dbc 84f7 153e 222a ad3c 3c99 4abd
000000e0: f7d9 1a3e e4cc cdbd 36e5 a8bc b3c7 2fbd
000000f0: af16 53be 4c90 57bd 2c4f fbbd d16b 0b3d
0.0026464914 0.006314418 -0.010204439 0.008972202 0.016993646 -0.029483117 -0.033101425 -0.047259796
0.13382106 0.0031968048 -0.091814764 -0.065924466 -0.09796027 -0.060577556 0.08433846 0.15458511
-0.11861766 0.110449806 -0.12858604 -0.0793438 -0.050793923 0.040950265 -0.07824011 -0.01539525
-0.087555945 0.09643553 0.044516068 0.118226685 -0.12301316 0.010471559 0.09744272 -0.032387983
-0.050570168 -0.14888464 0.07566217 -0.13858996 -0.044984255 0.04729731 -0.06381631 -0.04488527
-0.13524316 -0.07243907 -0.12424408 0.04528154 0.03609598 0.014803099 -0.026764868 0.07679417
0.01495034 -0.028331218 0.04030781 0.046056185 -0.014500054 0.14645201 0.021138255 -0.049462542
0.1512221 -0.100488454 -0.020617109 -0.042915057 -0.20614122 -0.052627847 -0.1227096 0.03403837

net.6.weight f4 [2, 64]
00000000: 8861 a140 93ab 8a3f 606c 303f 98e6 773e
00000010: 4c9f 953e d45c 233f 568e f9bd dea0 80bc
00000020: 4a61 1e3e 6544 393e 1102 81be f0e6 623d
00000030: 1754 09bd e9ad fd40 5957 353e e960 d03f
00000040: f898 33be 14a2 3bbe 333c 3540 de91 17c0
00000050: abfe 27be 0bb3 1bbe ebfa 97bd a741 7a3e
00000060: 46e5 34be 948a 5a3f 81fa 88bf f21c 77be
00000070: 77a5 73c0 510c fe3f 4f13 a1be 7211 aabd
00000080: aeb7 d2bd e5d9 213e a87d 01be 3148 7f3e
00000090: 5257 6540 fd1b f03e 9c28 223c 00b0 c1bf
000000a0: b5c8 893d 14ab f73d 2744 15c0 c12c 073e
000000b0: a803 15be 5c98 8bbe 0b05 e4be d4de 0e3f
000000c0: b117 7dc0 22d6 c43e fe4e 50c0 f950 2bbe
000000d0: 0472 823e 65fe 21be c6f7 263f 25f1 81bf
000000e0: cbc0 8abd 91d4 0cbd e691 4cbf 09b5 f4bd
000000f0: f67e 64be 66a5 423d 8a59 f33d d691 2c3b
00000100: 0e92 a1bf b57d 5fbf aef7 fe3e 698d 0cbc
00000110: 22d1 813c 6916 a4be 382a 3dbd f5da 80be
00000120: 3ba2 a1bd 3b99 cabe 6119 ac3e c329 a4bf
00000130: 947c 88be 9224 60c0 4521 a83e a1be ecc0
00000140: fa58 a6be c95e 65be 3761 00c0 27a3 c43f
00000150: fb6e 51be 6b20 413e 22a7 16bc eced 6bbe
00000160: df62 a83e 683e 3a3f 090f eb3f 0b2e ffbd
00000170: a938 99bf 38aa 9040 2e21 a2be fc5f 46bf
00000180: e88f 63bd 123b fe3d d494 3f3e 2717 8d3e
00000190: de21 f140 959e be3e 0f2c b1bd 20c0 bbbf
000001a0: 536a c43d 2b7d 48bf 5865 03c1 5802 d93d
000001b0: d758 a1bd 0a1b 54bd 3c6c df3e 0b2d 50bf
000001c0: 677e fc3f c02c 843d ad9a b640 81ad 81be
000001d0: 49bb 9ebd 83f4 063e 500f 333e c5e0 babf
000001e0: 9b4e 103e 42bc 8c3e 2790 963e a923 e9bd
000001f0: fb02 20be 9671 e43e 0809 cbbd 2786 8abe
5.0431557 1.083361 0.6891537 0.24209058 0.29223096 0.6381352 -0.121853516 -0.015701707
0.154668 0.18092497 -0.2519689 0.05539602 -0.03352746 7.9274793 0.17709102 1.6279575
-0.17538822 -0.18323547 2.8317993 -2.368278 -0.16405742 -0.15205018 -0.07420906 0.24439107
-0.17665586 0.85367703 -1.0701448 -0.24132136 -3.8069742 1.9847509 -0.31460044 -0.08304109
-0.1028894 0.15805776 -0.1264559 0.24929883 3.5834546 0.46896353 0.009897377 -1.5131836
0.06727735 0.120931774 -2.3322847 0.13200666 -0.14552176 -0.27264678 -0.44535097 0.5580876
-3.954571 0.3844462 -3.2548213 -0.16730107 0.25477612 -0.158197 0.6522182 -1.0151716
-0.067750536 -0.034382407 -0.79910123 -0.11948592 -0.22314057 0.047521017 0.118823126 0.0026332042
-1.2622697 -0.8730119 0.4979834 -0.008578637 0.015846793 -0.32048348 -0.04618284 -0.2516705
-0.07892271 -0.3957003 0.33613113 -1.2825245 -0.26657546 -3.502232 0.32837883 -7.39827
-0.3248976 -0.22399439 -2.0059335 1.536229 -0.20452492 0.18860023 -0.009195121 -0.23039979
0.32887933 0.72751474 1.8363963 -0.12459954 -1.1970416 4.5207787 -0.3166594 -0.7749021
-0.05555716 0.124136105 0.18709117 0.27556726 7.535384 0.37230363 -0.08650982 -1.4668007
0.09590592 -0.7831599 -8.212242 0.1059615 -0.07878273 -0.0517836 0.43637264 -0.8131873
1.9726075 0.06453848 5.7063813 -0.25327685 -0.077505656 0.13179211 0.1748631 -1.4599844
0.14092486 0.2748738 0.29406855 -0.11383755 -0.15626137 0.4461791 -0.09913832 -0.27055475

net.6.bias f4 [2]
00000000: 262b a5bd a951 833d
-0.080648705 0.0641206
