lib/mnist/model_small.pth (torch, 971754 bytes, 52 tensors)

time_embedder.1.weight f4 [64, 64]
00000000: d04e 7b3d 546f ab3d 001a 55ba 50db 8bbd
00000010: e23e c0bd aae7 e8bd c07e 3a3d 388e d23c
00000020: 1ec2 a5bd e06e 3dbd c2d1 af3d 68eb 8f3c
00000030: a0f8 86bd 8075 dbba 803c 683b c015 01bc
00000040: 6a70 e83d b41b 693d 04ce 243d 0031 06bb
00000050: 061b c13d 24ff cabd 961a f7bd e284 a53d
00000060: 9218 ebbd 00d5 55ba 4067 c1bc 78c9 aebd
00000070: f45c 53bd a098 e23d 18ee 8c3c c8ee 173d
00000080: 1e99 be3d 0843 93bc 60f0 433d 3a53 a6bd
00000090: beda 8cbd 6682 923d 8471 bf3d 8c3d 0abd
000000a0: f8de 9d3d 047d c13d 9c94 38bd d4c9 6f3d
000000b0: 50d0 6cbc c0d6 6d3d 042c 21bd c6b2 d23d
000000c0: aa0e edbd 9e40 e3bd 100e 03bd 0078 98b8
000000d0: f805 ddbc 6441 80bd c649 8a3d 684e 3abd
000000e0: 5c94 4c3d 96ca d53d d6f6 f1bd 847c e9bd
000000f0: 90f0 993d c68a febd e458 2dbd c099 67bd
00000100: 3f18 8b3d 55e2 04be 5f9e 1c3d 5712 9f3d
00000110: 72f8 bb3d 391b edbd 59a6 423d a871 f0bd
00000120: b593 05be e708 cb3c 249a 233d beda 95bd
00000130: c1ed 12be b69c e3ba 0bc5 1bbe 491c fcbd
00000140: 3f5c 05be a9b2 05be 7da8 f9bd f354 ba3d
00000150: 69f2 c5bd 7e8a 67bd 196c 883d 765c 93bd
00000160: ca27 413d c46f 7cbd afaf ee3c 6408 e1bd
00000170: bf81 11be 1ab8 8cbd 3740 3fbd 7ff5 0f3d
00000180: f1fd cd3d b235 083e e57c da3d 44fc 193d
00000190: 0704 d9bd 9912 673d 1f07 113d b1a6 053e
000001a0: 8040 8bbd 6549 8bbd 2250 e23d f6f1 ec3d
000001b0: a503 22bd ad62 aebd c057 023e 6476 5fbd
000001c0: 1db1 233c d99c b2bd 48e9 a63d 73aa ccbd
000001d0: 2c9a 413d de14 88bd 1fa2 a0bd d096 3aba
000001e0: b159 9ebd a3ab 9ebd 53ff e13d 6903 d53d
000001f0: 2752 3fbc 87d3 c63d 2dc9 c73d a3f5 8d3d
00000200: 2292 07bd b341 7139 2d16 05be 47ef 36be
00000210: 0fe3 43be d0b9 c73c 8c78 26be 7131 e1bd
00000220: 15d2 b9bd e644 83bc da1e 38be cc5b 463c
00000230: 2b59 dcbd 50f8 d3bc 8354 9dbd 59ad 63bd
00000240: fbf4 bebc 091b 80bd a8c6 853c c7f2 b6bd
00000250: ac8d b0bd c5c9 913c ff82 c73c 28d6 523d
00000260: 7b60 44be 758a 613b af53 38bd 8ce5 c8bd
00000270: 1814 5fbd 85db bbbc 24d9 a8bd 59d8 e2bb
00000280: 980d b93d b005 143e 7667 023e 4412 f63d
00000290: da15 fc3d 3838 ddbd f004 4fbd c355 2cbc
000002a0: c357 b13d ec71 893d 8fd5 e5bb 1a45 5d3c
000002b0: 8a9b 6abd c640 033c 1ec4 4bbd e44b 2d3d
000002c0: 53ae e5bc 6bf1 f73d 4149 553d 1732 e2bd
000002d0: d612 e33d 6290 85bd 18fb ce3b 0f1d 60bd
000002e0: 21e9 f1bd 4955 89bd ae2a c73d 9624 5ebd
000002f0: 5da4 e03d ce0c 8a3d 971f dfbd 4d68 07bd
00000300: ea7d 18be a57e b2bd 01d4 8e3d 5840 bfbc
00000310: 52ea 1e3d 2fab 57bd 0cd9 77bc 551b 4abd
00000320: 8c39 b3bd 067e 18be 42ed 823c c26f e0bd
00000330: f172 353d 004e 06be df1b 95bd 0c5f 06be
00000340: 06c9 453d 7bfc 17be 9278 9abd 690d 16be
00000350: 306b a1bb 7e97 cabd 8da4 06be 975f 92bd
00000360: 10de 21be e42f 873d 3a83 2cbe 06c4 8b3b
00000370: 47d6 123d 3c19 62bd ced5 a23c f06a 34bc
00000380: 8967 88bd 4ef2 ef3d 77d6 803d d019 153d
00000390: 3d4b 233c bdb0 b7bd b776 bfb9 b5d5 c63d
000003a0: 1647 22bd 5fc6 7b3d c43a 56bd ed1b b6bd
000003b0: dac3 20bc 9fdf edbb a139 f63b f133 0d3d
000003c0: b47a e83d 2c20 803d 4051 743d c064 b63d
000003d0: 0b28 babc 3b8c aebd 46cf 333c b89b 22ba
000003e0: 8075 523d 9624 57bd aa68 2a3d 6538 d53d
000003f0: f01e 46bd b145 a63c 19a6 d1bd 13f2 14bd
0.06135446 0.083708435 -0.00081291795 -0.0682894 -0.09386994 -0.113723114 0.045531034 0.02570258
-0.080936655 -0.046248317 0.0858493 0.017568305 -0.0659039 -0.0016743392 0.0035436451 -0.007878721
0.11349566 0.056911185 0.040235534 -0.0020475984 0.094289824 -0.099119455 -0.12065618 0.08081986
-0.11479296 -0.00081570446 -0.023608804 -0.08534521 -0.05160232 0.11064267 0.017203376 0.037092954
0.093065485 -0.017976299 0.04783666 -0.08121343 -0.06877659 0.07153778 0.09347823 -0.033750102
0.077085435 0.09447673 -0.0450636 0.058542088 -0.014453962 0.05806613 -0.039348617 0.102880046
-0.115750626 -0.11096309 -0.031995833 -7.2702765e-05 -0.026980385 -0.06262472 0.067523524 -0.04548493
0.049946174 0.10439031 -0.11814658 -0.114007026 0.07516587 -0.12428813 -0.0423211 -0.05654311
0.06791734 -0.12976964 0.038236972 0.0776717 0.091782466 -0.11577458 0.047521923 -0.11740428
-0.13044627 0.024784518 0.03994192 -0.073171124 -0.14348508 -0.0017365429 -0.15211885 -0.123100825
-0.1302347 -0.13056435 -0.1219034 0.09098234 -0.09665377 -0.05652856 0.06661243 -0.0719537
0.047157086 -0.061630026 0.029136507 -0.109879285 -0.1420965 -0.06871052 -0.0466921 0.035146233
0.10058201 0.13301733 0.10668353 0.037594095 -0.10596471 0.05641422 0.03540718 0.13051869
-0.06799412 -0.06801108 0.1105044 0.11569588 -0.039554257 -0.08514915 0.12728786 -0.054556265
0.009990958 -0.087213226 0.081499636 -0.09993448 0.04726617 -0.06644605 -0.07843422 -0.000711781
-0.07731951 -0.07747581 0.11035027 0.10401041 -0.0116773015 0.097083144 0.09755168 0.06931617
-0.033098347 0.00023008026 -0.1299674 -0.17864715 -0.19129585 0.024380594 -0.16256922 -0.10995758
-0.09073273 -0.016024064 -0.17980519 0.012106847 -0.10759195 -0.02587524 -0.07682135 -0.05558524
-0.023310175 -0.062551565 0.016330078 -0.08933025 -0.08620772 0.017796407 0.024354456 0.051473767
-0.1917743 0.0034414802 -0.045001682 -0.098094076 -0.054462522 -0.022931824 -0.08244541 -0.0069227633
0.09035796 0.14455295 0.1273478 0.12015203 0.12308855 -0.108017385 -0.05054182 -0.010518494
0.08659317 0.06711182 -0.0070139836 0.013505245 -0.05727724 0.008011049 -0.04974758 0.042308703
-0.028037226 0.12106594 0.052071813 -0.1104471 0.11087577 -0.065216795 0.006316554 -0.054715212
-0.11812044 -0.0670572 0.097249374 -0.05423411 0.1096885 0.067407236 -0.10894697 -0.033058453
-0.14891782 -0.08715562 0.0697403 -0.023346111 0.038797684 -0.052653488 -0.015127432 -0.049342472
-0.087512106 -0.14891824 0.015982274 -0.10958816 0.04429907 -0.13115692 -0.072807066 -0.13122195
0.048287414 -0.14842407 -0.07542528 -0.14653553 -0.004926108 -0.09892176 -0.13148709 -0.071471386
-0.15807366 0.06600931 -0.16846934 0.004265311 0.035848882 -0.055199847 0.01987734 -0.011011824
-0.06660373 0.11716138 0.06290906 0.03640157 0.009966669 -0.08969257 -0.00036518808 0.0970873
-0.039618574 0.06146848 -0.052302137 -0.08892045 -0.00981232 -0.0072593237 0.007514194 0.034473363
0.11351529 0.06256136 0.0596478 0.08905935 -0.022724172 -0.085228406 0.010974711 -0.00062030135
0.051381588 -0.052525125 0.04160372 0.10411147 -0.048369348 0.020296903 -0.10236759 -0.036363672

time_embedder.1.bias f4 [64]
00000000: 5051 2e3d efa8 d13d e0eb 8dbd 208c 94bd
00000010: 805a d8bb dcb4 ee3d 84da a83c f44a 763d
00000020: 0058 8b3a 9860 9ebd 97c5 c2bd 066f 00be
00000030: 900f 103c 530a f43d 476b d33d 6827 d23c
00000040: 54ce 183d e9e4 e7bd 0c2b 943d 557d 0f3d
00000050: ec9a a1bd 94eb d83d 3056 b13d d6d7 d03d
00000060: 3a22 f73d 899f 9a3d 56a2 a13d 9289 96bd
00000070: e8b7 80bd 9c61 e33d f380 633c 253c 84bc
00000080: bb24 b6bd 2085 613d dc9a 493c 505b debd
00000090: d8b9 a6bc 9f34 dabd 0bcc 843d c819 d0bd
000000a0: b665 ad3d 5211 a13d 51b9 15bc 72bc 943d
000000b0: 5c25 72bd f999 d33c db57 1fbd 3e85 f1bd
000000c0: a8a2 8d3d 9cc8 7b3d fc0d 133d 72da ff3d
000000d0: 0160 e63d efca 2a3d f2a8 a7bd 9072 ad3d
000000e0: cce6 073d e0fe 8fbc 062d a9bd 517d 89bc
000000f0: c3bd 2abd f6b3 40bd 0510 f53d ec00 1fbd
0.042558014 0.102373 -0.06929755 -0.07253289 -0.0066025853 0.1165559 0.020612009 0.060130075
0.0010631084 -0.077332675 -0.095103435 -0.12542352 0.008792773 0.11916032 0.10323196 0.025653556
0.037306145 -0.11322958 0.07234773 0.035031635 -0.07890877 0.10591808 0.08659017 0.101974174
0.12067075 0.0754996 0.07892291 -0.07350458 -0.06285077 0.11102602 0.013885724 -0.01614196
-0.088937245 0.0550586 0.012304988 -0.1085726 -0.02035229 -0.10654568 0.064842306 -0.101611674
0.084666654 0.07864632 -0.009138421 0.072625056 -0.05911766 0.025830256 -0.038902145 -0.11792992
0.0691579 0.061470613 0.03590201 0.12492837 0.1124878 0.04169744 -0.08186521 0.08469117
0.03317909 -0.017577589 -0.08260541 -0.016783388 -0.041684877 -0.047046624 0.11965946 -0.03881924

time_embedder.3.weight f4 [64, 64]
00000000: 0034 dc39 aeb2 abbc a190 01be 6445 9abb
00000010: 52f0 df3d fc50 05bb 515f 28bc f05b 9ebc
00000020: 0e13 b63d 12da d1bd ea84 be3c 9ecd 89bd
00000030: 487d d83d 0915 2b3d 3e07 abbd 6060 7d3d
00000040: 0c66 48bd 020d 9b3d c0a0 2f3d d582 4cbd
00000050: 9e82 a5bd e5ff 9c3d 25ec bfbc 0e14 c2bd
00000060: de58 ffbc 5149 ef3a 87cb 03be 68c3 b7bd
00000070: e871 97bc f94e 453d 0f0e 73bd 9a13 04bd
00000080: c2b4 cf3d e0bd f43c a157 c7bd 8f0a 8a3d
00000090: 00a5 1b3c 8f13 98bd c9f6 b4ba 0830 ec3b
000000a0: b453 37bd c790 003d 81b4 d4bb d08a 1fbc
000000b0: e4ee 113d cd33 443d 7dff 06be 0088 bc3b
000000c0: a01d d03c 602e 113d 704d 373d 9624 8ebd
000000d0: b703 83bd fd54 a7bd 3f6f 43bc 5fde c6bd
000000e0: 40c6 a5bc c274 93bd 4100 ccbc 04b9 babd
000000f0: 2b59 fd3d cda9 ed3d 07a5 01bd fee5 e3bd
00000100: a4b7 30bd 42d1 57bd af01 5fbd dc0d 09be
00000110: 70de 3fbc 664d 42be 7b00 013e 205b 9c3c
00000120: 4039 f1bd 8ce4 4fbd 175d 173c 82e8 cfbc
00000130: b422 b13d 685a 4a3e ddd1 27bd dcc3 96bd
00000140: 2caf 603d cc8b d0bd a67a cf3d 96c7 a13d
00000150: 3c37 213d e4da 8e3c d320 db3d 4992 8f3d
00000160: 1a90 90bd a6be 2e3d cfe6 b0bd 4cef 44bd
00000170: 08fc 88bd 3e24 53bd bb4c efbd 25aa f63c
00000180: 266f b6bd de64 ecbd 9b3a 40bd 6399 7cbd
00000190: 66fa abbd 2356 883c 4fe9 e7bd 37e5 ec3d
000001a0: b6df febd 379a 72bb dab9 c6bd 56bf 943d
000001b0: 967a 94bd 8e7d eb3d 11b9 48bd b0b6 13bc
000001c0: a4b0 7e3d 042f e13d bc31 7cbd a2a8 bc3d
000001d0: fd25 d4ba 9325 d63d 7aef 5a3d fba3 cb3d
000001e0: fd7c 03be 846c 4bbd 8401 123e 0ffb 143d
000001f0: cc47 233d 3952 54ba 6df2 2e3c e8ad 46bd
00000200: 1828 88bc f62b 53bb ab60 35be cc9b a6bb
00000210: 64be b9bd e9db 9cbd 4e03 c3bd a0bd a33b
00000220: b0ec 413c f6e6 c7bd 5cc4 b7bb 62f9 80bd
00000230: 90ff 323c e9c1 acbd 9966 83bd c04e c53b
00000240: e017 a63c c3e5 3dbd 9028 163c 56be f2bd
00000250: 9097 fa3d e45a b23c 0e8a 633d 7dae bfbd
00000260: b041 8e3d 78f8 d9bd f111 b23d 0a1d c53d
00000270: c8a6 59bd e800 9c3d 17bc 08bd b132 a4bd
00000280: 4874 02be 9ed7 de3d f49d 4bbd 7ba5 08be
00000290: 4091 eabd 379e f5bd 2933 a7bb 5d2f 84ba
000002a0: 58fc 5dbd 3f11 d0bd 3ad5 fabd 0814 f2bd
000002b0: 8e45 e33d b86e e73d b553 a43d e8bb 383d
000002c0: 38b2 ba3d 5c6b e5bd 8088 cfbc 460d 91bd
000002d0: f7bd eebd 0438 cbbc d2c1 aabd 82ba 87bd
000002e0: ef13 c63d e931 63bd ad55 ccbc 3a24 b0bc
000002f0: b521 cd3d 2d34 c6bd 69c6 96bd a852 b23c
00000300: 4c24 c23d dd6e fb3d 70ef 893c 9ba1 c9bd
00000310: 12f5 85bd 9c9a d13d 130c cbbd ee49 bf3d
00000320: 6885 bd3c f01b 023c e54a 523d c116 6fbd
00000330: 6a96 dc3d 82c2 853d 9cb8 74bc 68df c23c
00000340: 0841 3f3d 7d24 613d d08b c7bd 9969 3cbd
00000350: 9071 c5bd 4f4a 8b3d 9dd5 ad3d baac 01bd
00000360: 970a e63c 2db0 b73b 2265 6e3d 2c5c 3bbd
00000370: aa5b b3bd 2359 773d 37ce 44bd bf3c dabd
00000380: c995 753d d067 94bd 2811 bdbd 31a0 693c
00000390: 4ed9 adbd a17a 073e 2266 3c3d d2ec da3d
000003a0: d442 5abd 559e 8d3d 58f0 773d 00c9 9abd
000003b0: a005 b6bc 2ac5 4fbd 115d 0c3d 60f3 7cbc
000003c0: 2c4a 14bd b0bc e73d 0887 7d3d 8e7c b3bd
000003d0: ccfe 173c ade1 c4bd 76fe f83c a2b9 70bd
000003e0: 3d9e babc 75d6 bcbd b0ae fdbc f1ec d43c
000003f0: c379 aebc 123f 65bc 45e4 23bd a88a 51bd
0.00042000413 -0.020959225 -0.12652828 -0.004707979 0.10934509 -0.002034246 -0.010276631 -0.019330949
0.08890353 -0.10246672 0.023256738 -0.067286715 0.105707705 0.041768108 -0.08350991 0.06185949
-0.048925444 0.075708404 0.042877913 -0.04992946 -0.08081554 0.076659955 -0.023428032 -0.094764814
-0.031170305 0.0018256103 -0.12870608 -0.08972818 -0.018486932 0.048171017 -0.05933958 -0.032245256
0.10141899 0.029875696 -0.09733511 0.06740295 0.009499788 -0.074256055 -0.0013806458 0.007207874
-0.04475756 0.03138807 -0.0064912443 -0.009737685 0.035628214 0.047900964 -0.13183399 0.005753517
0.025404751 0.035444617 0.044751585 -0.06940572 -0.06397193 -0.08170507 -0.011928379 -0.09710383
-0.020236135 -0.07200004 -0.024902465 -0.0911732 0.12370523 0.116046526 -0.031651523 -0.11127852
-0.043143883 -0.0526898 -0.054444965 -0.13384193 -0.011710748 -0.18974838 0.1259784 0.01908642
-0.11778498 -0.05075507 0.009238503 -0.025379423 0.08649197 0.1976105 -0.040971626 -0.07361576
0.054854557 -0.10182914 0.10130815 0.07899396 0.039359316 0.01743836 0.1069962 0.070103236
-0.07058735 0.042662285 -0.08637773 -0.048079774 -0.06688696 -0.051548235 -0.11684557 0.030110428
-0.08907919 -0.115426764 -0.04693089 -0.06166972 -0.08397369 0.016642636 -0.11323797 0.11567157
-0.12445013 -0.0037018189 -0.09703417 0.07263057 -0.07249944 0.11498557 -0.049004618 -0.009015724
0.062180176 0.10995296 -0.061570868 0.09211852 -0.0016185638 0.104563855 0.05345104 0.09943386
-0.12840648 -0.049664035 0.1425839 0.03637224 0.039863393 -0.00080994103 0.010677916 -0.048505694
-0.01662068 -0.0032222248 -0.17712657 -0.0050844904 -0.09069517 -0.07659132 -0.09522115 0.0049969703
0.011836216 -0.09760849 -0.0056081247 -0.06297566 0.010925189 -0.08435423 -0.06416053 0.0060213506
0.020275056 -0.046361696 0.009164944 -0.1185271 0.122359395 0.021771856 0.05555158 -0.09359453
0.06946123 -0.10643095 0.08694828 0.096246794 -0.05313757 0.0761736 -0.0333825 -0.08017481
-0.1273967 0.108809695 -0.049711183 -0.13344376 -0.114534855 -0.11993068 -0.0051025343 -0.0010084916
-0.054195732 -0.101595394 -0.12247701 -0.11820227 0.11097251 0.11300415 0.08023778 0.045101076
0.09116024 -0.11202118 -0.025333643 -0.0708261 -0.11657327 -0.024806984 -0.083377495 -0.066273704
0.09671771 -0.05546752 -0.024943197 -0.02150165 0.10016195 -0.096779205 -0.073620625 0.02176793
0.09479579 0.12277005 0.016837806 -0.09845277 -0.06540884 0.102345675 -0.09914412 0.09340273
0.023134902 0.007941231 0.051340956 -0.05837131 0.10770877 0.0653124 -0.014936592 0.023788169
0.046692878 0.05496644 -0.09743464 -0.045999143 -0.09640801 0.068012826 0.08488009 -0.031658866
0.028081222 0.0056057186 0.058201917 -0.0457422 -0.08757718 0.06038774 -0.048048224 -0.10656118
0.0599573 -0.07246363 -0.09231788 0.014259384 -0.08488713 0.13230373 0.04599584 0.10689701
-0.05328639 0.06914965 0.060531944 -0.07557869 -0.02221948 -0.05072514 0.034268443 -0.0154388845
-0.03620355 0.11315286 0.061896354 -0.08763991 0.009277057 -0.09613357 0.030394774 -0.058770783
-0.022780532 -0.09220592 -0.030967087 0.025991889 -0.021298295 -0.013992088 -0.040012617 -0.051157624

time_embedder.3.bias f4 [64]
00000000: bfcc e23d bf3f 553c 995f b73d ee7b 933d
00000010: 45a9 263d 2245 8d3b c6ba 6ebc a5b4 353c
00000020: 2ef7 d93d bcce 00bc c970 afbc b3ae 2d3d
00000030: a28d c83d a5c8 d4bc bb54 aabc 6116 98bd
00000040: 30ac abbd ce6c 7f3c c8cb 0c3d 08cc de3b
00000050: e667 9fbd 8ba8 a83d bf2f 75bd 7791 0c3e
00000060: b6c8 8e3d ab01 b6bd a014 983d 2aec d83c
00000070: 964d 0dbd ced8 013e 7955 22bd 89e0 98bc
00000080: 1cc9 c03c 3327 943c 9841 91bc ba13 36bd
00000090: 8ab3 823d e94e 453d 7009 5bbd 7e8b ad3d
000000a0: ea4c a2bd 3919 c2bd 51a3 28bd 90fd 983d
000000b0: 95e7 bf3d f26d 66bd cea1 75bb 80e6 ba3d
000000c0: 95d8 a53c d567 c83d dc69 cdbd 76c4 303d
000000d0: dda5 293d cf22 ae3d 2e42 55bd f396 b1bd
000000e0: 322f aabc de9f babd 8e80 da3d cd84 463c
000000f0: 1484 bc3c 9499 dc3d b385 043e 6aea 69bc
0.110742085 0.013015687 0.08953781 0.07201372 0.04068877 0.00431122 -0.014570897 0.011090432
0.10642849 -0.007861789 -0.021416085 0.042402934 0.09792639 -0.025974581 -0.020792356 -0.074261434
-0.083824515 0.015589906 0.03437403 0.0067992248 -0.07783489 0.08235272 -0.059859987 0.13727365
0.06971876 -0.08887037 0.07425809 0.0264798 -0.03449782 0.1268036 -0.039632294 -0.018661754
0.023533396 0.018085098 -0.017731473 -0.044452406 0.063819006 0.048170958 -0.053475797 0.08473872
-0.079248264 -0.09477467 -0.041171376 0.07470238 0.09370343 -0.056257196 -0.0037480476 0.09125996
0.020244876 0.097854294 -0.10029957 0.04315611 0.041417945 0.08502733 -0.052065067 -0.086713694
-0.020774458 -0.091125235 0.10669051 0.012116623 0.023012199 0.1077148 0.12941627 -0.01427708

class_codebook.weight f4 [11, 64]
00000000: 3ac8 933f 37c4 443d dd55 e83f 7f20 f33e
00000010: 4d20 31bf cf88 583e 47c2 973f 56e3 563f
00000020: f441 12bf 980e 00c0 0ba7 2d3f ee24 8cbf
00000030: 6b60 8a3f 3450 873e 1496 253f 3e4a 4cbf
00000040: a68b 0abf b1f1 a0bf cf32 55bf 6c5d 9ebf
00000050: 78c2 5a3f 4282 1b3f 713f 45be a112 883d
00000060: de86 333f 7636 993f 067e 57bf fe2a d33f
00000070: 5ea7 0f3f 3cae 8d3f 5746 ddbe 309a 3a3e
00000080: 58d1 673f 1431 7bbe 991b e23e beeb 7abf
00000090: fdb7 a83f f98e 583f 99d0 fc3e 741e 7bbe
000000a0: 065b 433f 7cf1 3e3f 9fc6 823f a77f 0240
000000b0: 1189 c03d 2c58 a6bf a81f 09bf 8d57 c03e
000000c0: e392 d33c c8f9 cabf e504 77be bbb9 39be
000000d0: be1f 933f 50d9 e3bd 9b3f 9cbf e67e 323f
000000e0: 1133 ca3f 05d7 46bf 1681 0ebe 5990 c5bf
000000f0: a37c c3bd fd55 363f 9117 0ac0 a7ca 35bf
00000100: d9f4 e5be 8bbd 17bf eea1 21bf cd5a 813e
00000110: 426e 45bf 7186 e63d fc4f e4bf 30a7 c9be
00000120: 4cf5 c93f 3418 dd3e f348 1a3e 2a5c cf3f
00000130: 1f11 0e40 908a 57bf 2118 abbf 5348 133e
00000140: f2ab 1fbf 0f6d 3fbf 1718 84be 82bb 88be
00000150: bb82 9cbf 2328 2dbe dd59 25c0 add2 84bf
00000160: db3a 15bf 19cb e0bd 4106 af3f 20fa 953f
00000170: 8a7c 0bbd 5c4a e73f 77f7 633f 22d0 a0bf
00000180: 5d68 8a3e 796e bfbf 95f5 2a40 4a0f 913f
00000190: 7a24 1b3f 048a 0240 7d47 8f3e 89c0 a03f
000001a0: 16f6 dd3e cc2a a4bf 63f3 773e 9006 69bf
000001b0: 47ca 893c 20ad a5be 6df9 873e 8f16 893f
000001c0: 0cc2 bd3f 229c 06bf 809f 3640 0176 8d3f
000001d0: 74e2 91bf b586 9e3f 7761 1240 f01d 46bf
000001e0: f09e 2ebf 224c 163f 25a1 09c0 7768 2b40
000001f0: 4f9d dc3d df76 cb3e 33ec 6c3f f23d f4be
00000200: 6f49 32bf 6f62 5f3f a5ed 9d3f fc6d 0f40
00000210: 8c5b 463f 9f08 36be a095 bb3e 4b69 a6be
00000220: 8055 87bf f502 97be 4a72 35bf 05e1 b9bf
00000230: 5617 e8be 3388 80bf 67d0 403d 147a b3be
00000240: aa8a ad3e 036c 02bf ed7d 643f bff2 aabe
00000250: e159 d83e f1a1 e53e 6679 9cbe 2bf9 913f
00000260: dc09 69bf a8fd 323f 529e 1e3f ae5b 41bf
00000270: 191e 863e 1527 5abf 3543 2ebf bb2b c3be
00000280: 463a 32bb 55eb cfbe a98a 9c3f 9d3a 143f
00000290: 49aa c03f dbdc 87bf c955 1ebe f7c0 84bf
000002a0: bc30 8ebf d346 a1bf 8ef9 b3bf 28b7 f43c
000002b0: 61bd 57bf 8dbe 823d 8074 a1bf d1cf f6bf
000002c0: b895 a73f 3c2d 94be d297 bf3e 14cd 96bf
000002d0: f5fb e63e 87fe ac3f 5a4b 70bd ab25 103f
000002e0: fbfc 1abf 9e97 97bf 54ce 97bf dca4 013f
000002f0: 778d 1d3c 0302 ccbd 268b d63e c3e3 84bf
00000300: 2789 eebf 416e 903f a6fb b3be 56d3 b13f
00000310: 6c7c 2ac0 efcc 6d3f 67a5 efbe 2477 cf3f
00000320: 7415 ff3f e7f6 60bf 903d 7ebe 1018 2fbe
00000330: 9f40 74bf 4a80 e53d 9f1f d43c 2f92 373f
00000340: a673 d13f 2333 5bbf 91f1 873f d07f bdbc
00000350: 1bad c13e f0de a13f b0d4 853f 5213 a0be
00000360: 96bd 6dbf 612a f23e dde8 983f e2f6 38bf
00000370: b9f3 3ebf 48b3 333f afa7 85bf 74f9 99bf
00000380: 44eb 2bbf ee8f 9f3e 7ae2 2abf 6336 9fbf
00000390: 86af babf 8f3b 333f 11fa 37be 99e2 5e3e
000003a0: 7f11 cd3f 2b27 aabe 7a02 8b3f c726 7dbe
000003b0: 0dfd 2d3f eefb db3e 4e16 9abf 5d86 64bf
000003c0: 3a8d efbd 0841 843e 7d5e b23f 53b6 c9be
000003d0: 615c 903e c093 c03e 634a a93f 8bb6 3fbf
000003e0: e49d 2b3f d216 b83e ed1f 1540 4fa7 c43e
000003f0: 7741 89bf 4dbc 863e 234d 71bf 40c4 053f
1.1545479 0.048038688 1.8151203 0.4748573 -0.6918991 0.21145938 1.1856164 0.8394064
-0.57131886 -2.0008907 0.6783301 -1.094877 1.0810674 0.26428378 0.64682126 -0.79800785
-0.54119337 -1.2573758 -0.8328065 -1.237226 0.85452986 0.6074563 -0.19262482 0.06644178
0.70127666 1.1969745 -0.8417667 1.6497495 0.5611476 1.1068797 -0.43217728 0.1822288
0.9055381 -0.2453044 0.4416168 -0.98015964 1.3181149 0.8459316 0.49377897 -0.24523336
0.76310766 0.74587226 1.0216864 2.0390413 0.09401143 -1.2995658 -0.5356393 0.37566796
0.025826877 -1.5857477 -0.24122961 -0.18137257 1.1494062 -0.111254334 -1.2206911 0.6972488
1.5796834 -0.77671844 -0.1391643 -1.5434676 -0.09545257 0.7122496 -2.1576884 -0.7101235
-0.44913366 -0.59273595 -0.6313771 0.25264588 -0.77121365 0.112561114 -1.7836909 -0.39385366
1.5777984 0.43182528 0.1506689 1.6200001 2.219795 -0.84195805 -1.3366739 0.14383058
-0.6237174 -0.74775785 -0.2579963 -0.26705557 -1.2227396 -0.16909842 -2.5836098 -1.0376793
-0.5829293 -0.10976238 1.3673784 1.1716957 -0.034054317 1.8069568 0.89049476 -1.2563517
0.27032748 -1.4955589 2.6712391 1.1332791 0.60602534 2.0396738 0.2798423 1.2558757
0.4335181 -1.282556 0.24213938 -0.9102564 0.016820086 -0.32358646 0.26557484 1.0710009
1.4824843 -0.5258199 2.853485 1.1051637 -1.1397233 1.2384859 2.2871988 -0.7738943
-0.6821127 0.5870992 -2.1504605 2.678251 0.10772192 0.3973913 0.9254791 -0.4770351
-0.696433 0.8725957 1.2338148 2.241088 0.7748344 -0.17776726 0.36637592 -0.32502207
-1.0572968 -0.29494444 -0.70877516 -1.4521796 -0.45330304 -1.0041565 0.047073748 -0.35054076
0.33894855 -0.5094606 0.8925465 -0.33388326 0.42256072 0.44850114 -0.3056137 1.1404165
-0.9103067 0.699183 0.6196033 -0.7553052 0.26194838 -0.85215884 -0.680713 -0.381193
-0.0027195378 -0.40609232 1.2229816 0.57901937 1.5051967 -1.0614275 -0.15462412 -1.0371388
-1.1108623 -1.2599739 -1.4060533 0.029872492 -0.84273344 0.06384001 -1.2613678 -1.928217
1.3092566 -0.2894076 0.37420517 -1.1781335 0.45114103 1.3515176 -0.05866561 0.56307477
-0.6054227 -1.1843145 -1.1859841 0.5064218 0.009616247 -0.09961321 0.41903037 -1.0382007
-1.8635606 1.1283647 -0.3515293 1.389262 -2.663844 0.9289083 -0.4680588 1.6208234
1.9928422 -0.87876743 -0.24828172 -0.17099023 -0.95411104 0.1120611 0.025893984 0.71707433
1.6363418 -0.85624903 1.0620595 -0.023132235 0.37827381 1.264616 1.0455532 -0.3126474
-0.9286741 0.47297958 1.1946064 -0.72251713 -0.7459064 0.70195436 -1.0441798 -1.2029252
-0.6715586 0.31164497 -0.66751826 -1.2438473 -1.4584816 0.70012754 -0.17966487 0.21766128
1.6020964 -0.33233008 1.0860131 -0.24721824 0.6796425 0.42965645 -1.2038057 -0.8926752
-0.11696859 0.25830865 1.3935086 -0.39396915 0.2819548 0.37612724 1.3225826 -0.74887913
0.67037797 0.3595491 2.3300736 0.38408896 -1.0723103 0.26315537 -0.94258326 0.5225258

class_embedder.0.weight f4 [64, 64]
00000000: 3c0d 1bbd b8bf a83c 475b d0bc 0e49 d03d
00000010: 2ade e5bd 7da1 693d 0cde 683d 6ae0 ac3d
00000020: 5969 e7bd 2634 183c 946a f43d ece3 bebd
00000030: bbf5 7c3c 83a0 88bd 9849 93bd 13fb 953d
00000040: 254d ef3d 8d01 d23c b058 e1bd 4657 f63d
00000050: 3dbb 08bd fd6c 9c3d 81c3 8abd 7b0b 8f3d
00000060: d5fb ec3d 0449 4bbd 0d9a 893d cb7e fc3d
00000070: a8ba b5bd 0da7 9dbd 5eae 40bd 5dae 353c
00000080: 790e 93bc 984f 89bd 4f70 28bd 590f 373d
00000090: e1d1 73bd 87cf dbbd 53c2 713d 2b6e 58bd
000000a0: cb2f c0bd 9cc0 f43d a8ee 09bd 9390 6ebd
000000b0: 7fc4 d6bd 2b56 adbd 8db5 df3c 5d85 95bd
000000c0: 90b8 b6bd 648e 10bd 749d 07bc 0aa6 98ba
000000d0: 33a1 c43d 6597 7ebb 740b c93c 1e45 9dbd
000000e0: 3100 c8bc eb1d 87bc 4c23 b5bd a520 de3c
000000f0: e24f a63d b3d3 90bd 29ae 7cbd 446b 00bc
00000100: eac7 0fbb cf83 593d 74cc a5bd 5064 a5bd
00000110: fa36 383d 31b2 3dbd 3505 36bb ef62 3a3d
00000120: 906a e7bb 3f6b df3d bb5c b83d bd1d 87bb
00000130: f809 613c 364c 043e 1953 273d b00c 9abd
00000140: 198c c0bd 279d debd d9f0 f5bd 18a9 5b3d
00000150: 0e86 113d 9db7 04be 0540 f43c d3cc b5bd
00000160: 857e be3d 58a8 7a3d 80e5 e83d c115 873c
00000170: d676 cfbd fd10 00be fa1f de3d 6112 47bd
00000180: 372d 96bd dcb6 01be 2990 2ebc f59a c7bd
00000190: 6a80 8abd 4a41 8bba 8b97 b8bd e1ea 153e
000001a0: 58be 80bd d886 babd a55f 4ebd 643f 9e3c
000001b0: 227e c93d 14b4 d6bd ec48 eb3d 5aa2 6dbc
000001c0: 4dfa 6d3d f10c d93d 41b4 97bd 50e2 8abd
000001d0: 756c 79bd d036 e53c 1794 423d abb9 553d
000001e0: 6aed 92bd 6620 fd3d 8bc9 3e3d 9949 9bbd
000001f0: 8214 023e 081a d4bd 00d7 b9bd ad89 88bd
00000200: 90a3 ddbd dbb8 af3d 3a0e e13d abb4 ee3d
00000210: 53d8 ae3b 5ee1 ebbd 5524 493d 0da2 7abd
00000220: 204e 003e 1df0 cdbd 1069 d3bd 64ba 7c3d
00000230: e3d7 5abb 23ac 143d 79d3 d83d 54bb f43b
00000240: be37 d93d 8903 433c ccd4 46bd 54b3 9abd
00000250: 1096 d6bc 0acc d73b 2e5b 40bc 1cb3 b43d
00000260: c7aa 67bb df3b ccbd 4654 aabd 6b56 c63d
00000270: 4741 023e 82e7 36bd 34a7 733d 3c37 703d
00000280: 1a76 18bc 7c12 7e3d 9aaf 993c 913f 9d3c
00000290: b589 b43d 4843 4a3d c6b8 05bd 484d 2d3c
000002a0: 8086 5c3d ecc9 433c 25fe a63b c420 5b3c
000002b0: e74d 9abd 723f dd3d 5835 b2bd 186d b73d
000002c0: 39d5 47bd 81ab a33d b549 683d 5da9 743d
000002d0: 94e5 b8bd 13aa d53d d28b 05bd e53a e13d
000002e0: c428 c5bc 4ff4 7d3b 617e af3c 0963 b3bd
000002f0: c6c1 9f3d d0ea e63c ffe7 023e 1284 db3d
00000300: f27f 56bd 9e3c 983d 105b b2bd 8927 623d
00000310: 0c44 d83d efef 37bd b837 49bd 349f ed3c
00000320: c74c 2cbd 3e87 13bd 01ac df3c 2e06 e63d
00000330: 2bd6 e4ba 51fc d6bd 0a2b bebd 9cf5 50bd
00000340: c68e 54bd c638 c13c 17ec a33d f09e 5b3d
00000350: 043e 223b 7bf6 96bd badd 913d 6298 f2bd
00000360: df00 04be 2508 363d e30b 973d 570d 80bc
00000370: 47c6 36bd 6db4 2dbd 7966 5a3b 2429 eebd
00000380: 002d ffbd f8f5 e63d efb6 7fbd 63f2 97bd
00000390: b473 b53d 451c 05be 6343 a6bc e6b8 e1b9
000003a0: 7106 e8bd 2169 943d 2779 02be 6ec9 9ebd
000003b0: 32b3 dc3d 3d82 e7bd 3a41 6c3d 620d 013d
000003c0: 55f1 f83c 7e81 ecbc 8f43 c13d b697 22bd
000003d0: 57d8 62bd b5b0 f2bd 1234 65bd 590d 64bc
000003e0: 4549 e2bd 42a2 c8bd 3245 4e3c 075e cdbd
000003f0: 886f f4bd 7ef6 b9bd 8183 6839 2c54 94bd
-0.03785442 0.020599231 -0.02543415 0.10170184 -0.11224015 0.057038773 0.056852385 0.08441241
-0.1129939 0.009289777 0.11934391 -0.093208164 0.015439446 -0.0667124 -0.07191771 0.07323279
0.11684636 0.025635505 -0.11003244 0.12028365 -0.03338169 0.07637975 -0.06775571 0.069846116
0.11571471 -0.04963018 0.06718836 0.12328871 -0.088734925 -0.07697878 -0.04704129 0.011088935
-0.017951237 -0.067046344 -0.04112273 0.04469237 -0.059526328 -0.10732942 0.059023213 -0.05283944
-0.09384116 0.119508 -0.033674866 -0.058243345 -0.104866974 -0.08463701 0.02730825 -0.07300828
-0.08921921 -0.035292044 -0.008277286 -0.0011646163 0.09601059 -0.0038847562 0.024541594 -0.07679199
-0.024414154 -0.016493758 -0.08844623 0.027115176 0.08120705 -0.070716284 -0.06168953 -0.007838074
-0.0021939226 0.053104218 -0.08095637 -0.08075774 0.044974305 -0.046312515 -0.00277741 0.045504507
-0.007062264 0.109091274 0.09002062 -0.004123418 0.013735287 0.12919697 0.040850732 -0.07521951
-0.094017215 -0.10869818 -0.12008829 0.053628057 0.035528235 -0.12960668 0.029815683 -0.08876958
0.093014754 0.0611957 0.11371899 0.016489865 -0.10130088 -0.1250648 0.10845943 -0.048601512
-0.07332843 -0.12667412 -0.010654488 -0.097463526 -0.06762774 -0.0010624316 -0.090132795 0.1464038
-0.06286305 -0.09107751 -0.050384182 0.019317336 0.09838511 -0.10483566 0.11488518 -0.01450404
0.058100034 0.105981715 -0.074074276 -0.06781447 -0.06089445 0.027980238 0.04750451 0.05217902
-0.071741894 0.12359695 0.046578925 -0.07582397 0.12703136 -0.103565276 -0.09074211 -0.066668846
-0.10822213 0.0858018 0.109890416 0.116555534 0.0053358465 -0.11517595 0.049106915 -0.0611897
0.12529802 -0.100555636 -0.103227735 0.061701193 -0.0033392839 0.036296975 0.1058721 0.0074686203
0.10606335 0.011902698 -0.048542783 -0.075537354 -0.026194602 0.0065856026 -0.011740489 0.08823225
-0.0035349594 -0.09972357 -0.08316855 0.09684452 0.12720214 -0.044654377 0.05948563 0.058646426
-0.009305501 0.062029347 0.018760491 0.01919535 0.08815328 0.04938057 -0.032646917 0.010577507
0.053839207 0.011949997 0.0050962144 0.013374511 -0.0753439 0.10803117 -0.08701581 0.08956355
-0.04878733 0.07991696 0.056710918 0.05973183 -0.090281636 0.1043283 -0.032604046 0.10997561
-0.02406729 0.0038750356 0.021422567 -0.08759124 0.07800631 0.02818814 0.12783812 0.1071855
-0.052368112 0.07433437 -0.08708775 0.055213485 0.10559854 -0.044906553 -0.049125403 0.029006578
-0.042065408 -0.03601765 0.027303698 0.112316474 -0.0017458847 -0.10497344 -0.09285553 -0.05101548
-0.05189397 0.023586642 0.08004015 0.05361837 0.0024756202 -0.07371231 0.07122369 -0.11845471
-0.12890957 0.04444136 0.07375314 -0.015631361 -0.044622686 -0.042408396 0.0033325239 -0.11628941
-0.12459755 0.112773836 -0.06243032 -0.074192785 0.08859959 -0.12999065 -0.020295804 -0.00043053104
-0.113293536 0.07246614 -0.12741528 -0.077532634 0.10776366 -0.11304138 0.057679392 0.031506903
0.030388514 -0.02887034 0.09436714 -0.039695464 -0.0553821 -0.118501104 -0.05595786 -0.013919198
-0.11049131 -0.09796573 0.01258974 -0.100277 -0.119353354 -0.09080218 0.00022174233 -0.07242617

class_embedder.0.bias f4 [64]
00000000: 232c e0bd e388 66bd d456 12bd 8920 e03d
00000010: d946 4f3d 60d6 193c ee31 99bd 6025 5b3d
00000020: 6123 843d 0707 893c 76e6 debc 5272 3e3d
00000030: aee8 86bd 311b 903d 7006 6fbd 5bfd 4b3d
00000040: af29 8d3d 75c6 01bc 3f69 5cbc 1c23 93bd
00000050: 8632 76bd d75e 92bc 9a36 673c 2ffb f1bd
00000060: 2fa7 533b fe3f a5bd 06e4 973d efca b2bd
00000070: 8c6a 093e 603e f5bb 4364 e2bd 92d2 99bd
00000080: e383 d93d 5916 d2bd 9d1f 99bc af63 9b3d
00000090: 7546 b13d e1a7 4bbd baf6 86bd fc06 e9bd
000000a0: 60d7 afbd f883 58bd 2d2c 68bd 67af fd3b
000000b0: 3c7b 5f3c 95d0 3abd affe 6a3d 25ab bfbd
000000c0: 93f2 6d3d 020f a9bd 2309 ecbd ae8f 733d
000000d0: 6c6b 93bd 3eb5 f9bd 5f3a 91bd 8bc9 52bd
000000e0: c21b 553d 1206 4abd 1960 783d bd6b 813d
000000f0: 5bb1 c3bd 9552 8ebd 9aab f0bd ad2e 1c3c
-0.109459184 -0.05628289 -0.035727337 0.109437056 0.050604675 0.00938949 -0.074802265 0.05350244
0.064520605 0.016726984 -0.027209502 0.046495743 -0.06587349 0.07036436 -0.05835575 0.049802165
0.06892716 -0.007920851 -0.013452827 -0.07184431 -0.060106777 -0.017867489 0.014112139 -0.118154876
0.0032295694 -0.08068846 0.07416539 -0.08730113 0.1341955 -0.0074842423 -0.1105428 -0.07510866
0.106208585 -0.10258169 -0.018691832 0.075873725 0.08656017 -0.04972065 -0.06590028 -0.11378285
-0.085860014 -0.05286023 -0.056682754 0.007741857 0.013640221 -0.045609076 0.05737179 -0.09358815
0.058092665 -0.08254816 -0.1152518 0.059463196 -0.071982235 -0.12192772 -0.070912115 -0.051461738
0.052028425 -0.049322195 0.06063852 0.063193776 -0.09555312 -0.06949345 -0.117514804 0.009532613

class_embedder.2.weight f4 [64, 64]
00000000: aa7b 033d d209 ee3d c006 4bbd 0961 4fbb
00000010: 15b6 503d 3c3c 113d f573 933c 302e d93c
00000020: 78be 65bd cfec 2e3c e62b 983d f698 87bd
00000030: 5323 b0bd 9537 bf3d 1e67 f0bd c446 0a3d
00000040: 2891 863d feeb 423d 9157 cebd d1a0 eabd
00000050: 1bb8 903d eaa8 9ebd 0862 8bbd aa0d 64bd
00000060: e950 7b3d 9882 943d fb3e 063e 1e71 02bd
00000070: f62a da3d 07c7 f73c 924c 2d3d 28d6 b1bc
00000080: 3997 3dbd 39c8 493d cb2e e93d 2504 62bb
00000090: 9f65 d33c 9eb6 e03d 0953 cfbd 2d46 adbd
000000a0: 049b bf3c 7b90 c1bd 9385 a93d a786 f73d
000000b0: 9eeb 54bc 9519 973d 040a 97bd a31c da3d
000000c0: 995c 153b 2e41 4ebc a2cd e33d 66e1 acbd
000000d0: b029 41bd fddf 8abd 0d7d f83d 22ce b5bd
000000e0: 5a33 383d b23a d23d 8af9 73bd c18e e1bc
000000f0: 7a2a a83d 7b5c 85bd 7df4 503d b3c5 d2bd
00000100: 948d c33d 74b8 263d b3e2 4fbd 3c80 35bd
00000110: c566 303d c53e c2bd f39f 07bd dd70 c6ba
00000120: 134e 6b3d 184b 82bd 3ed6 743d 15de aabd
00000130: be55 adbd 6679 c13a 4acd 333d 6592 cfbd
00000140: f10a 283d 3e44 3dbd d028 c03d f5a8 26bd
00000150: ec0d 083e f924 7dbd 75d3 8abd 9647 a93d
00000160: c68d db3c c6a1 aebd 9e8b 803c 9965 71bd
00000170: 21b6 ae3d 1bb9 b33c 6cf9 2b3d aba7 c33d
00000180: 2ab0 46bd 2503 ce3c 2665 97bd 98b1 e43d
00000190: 5449 86bd aed5 113d 5d17 5f3d fe6c adbd
000001a0: dc00 a9bd 74a9 333d 4642 d43d 10eb 883c
000001b0: 9c6d 103b 6ae3 153c cf93 c63d d6b9 bebd
000001c0: 2bd5 cdbd 5412 ebbd a4bb c33d e8c3 34bd
000001d0: 8e6b 373d d19a d93d 7058 3fbd 5185 ee3b
000001e0: 10ee fdbc a70c da3c eac7 a6bd e9d4 fc3d
000001f0: c195 833c 494a 1abd cf31 f03c 5c30 713d
00000200: 82df ca3d bbb0 b63d 35c5 b9bd 8900 a9bd
00000210: 5b55 c4bd 6d1e 2dbd 395b 1b3d 4142 81bc
00000220: a3f5 16bd fe6f 143b d793 0ebd 19e0 a0bc
00000230: a0c7 d7bd a901 28bd b26e 933d 5c9e 35ba
00000240: bb16 b9bd 9ffc 333c d9af 57bd 8524 4ebd
00000250: c3b2 3dbd 5abc 593d 1c8f fbbd 7c6b fcbd
00000260: 7a24 e8bd 12ed 20bd 6e20 bf3d d291 ec3d
00000270: c122 c7bd f005 cb3c b2b4 77bd 1b60 37bc
00000280: be7c b5bc dabf 773d f02e 1b3d 6c3a f1bd
00000290: 9faa 80bd 8310 963d 993f d8bc a155 aebc
000002a0: d818 013e 7562 8b3c 8bb1 0a3d e5c2 9ebd
000002b0: 31df 11bd 50a2 833d cba1 8f3d 5af9 a6bd
000002c0: 3d6e e23d 8470 2cbd 61ab bdbd fb41 75bb
000002d0: 19a3 e7bd 4bfc a43d e8ad b13d 9a41 de3c
000002e0: a2f0 813d 1ee7 c5bd 33fa cd3c 5994 613d
000002f0: 2ed1 2fba 2086 5dbd cc43 c5bd 0115 04be
00000300: 8854 153d d71e 2ebd cf00 b7bd 044b 073d
00000310: 0f85 10bd b473 1a3d e601 863d 0771 223d
00000320: f080 863c 65a1 823d 2e18 6abd ac03 b339
00000330: 011e 6abc 5110 e73d 835e 13bd 2672 843d
00000340: 8631 92bc 800c 5dbd 264e 58bd 21d1 903d
00000350: 6942 a33c 510e b33d b723 ef3d 5af9 bbbc
00000360: 4d46 433d dfa1 b2bd d780 543d 0cfb ca3d
00000370: a49a 95bd 0c86 9a3c baac b6bd 8b80 543d
00000380: bc4a 833d aa81 fa3a 8b72 d43c 27fb 91bc
00000390: 4acd 633d 6638 a8bd d755 f6bd 3536 1fbb
000003a0: 5de9 12bd 0479 eabc 8b42 d63d fa47 363d
000003b0: 856e c13d 6d7c 2e3c 0572 e73c a4f8 6dbd
000003c0: 1e22 e83c 3378 823d 8c9a 6c3d 4fdd 85bd
000003d0: 2437 b3bd 89d6 903c b476 03bd e4f3 dfbd
000003e0: 0646 c8bd 5537 83bb e8aa f73d f688 9d3d
000003f0: b0dc f33d 0d28 183d b06a 4bbd 1c52 bf3d
0.032100357 0.11622967 -0.049566984 -0.003164353 0.050954897 0.035457835 0.017999629 0.026511282
-0.05608985 0.010676577 0.07430248 -0.06620972 -0.086004876 0.09336773 -0.11738418 0.033758894
0.06570655 0.04758834 -0.10075296 -0.114564545 0.07066365 -0.077470616 -0.06805807 -0.055677094
0.06135646 0.07251471 0.13109963 -0.03184616 0.106527254 0.03024627 0.04230935 -0.021708563
-0.046286795 0.049263213 0.11385878 -0.0034487334 0.025805293 0.109723315 -0.101232596 -0.084606506
0.023389347 -0.094513856 0.082774304 0.1208623 -0.012995629 0.07377926 -0.07374957 0.10649993
0.0022790788 -0.012588782 0.11123206 -0.08441429 -0.047158897 -0.067810036 0.121332265 -0.08877207
0.044970848 0.102651015 -0.05956415 -0.02753389 0.08211227 -0.0651178 0.051014412 -0.102916144
0.09548488 0.040703252 -0.050753307 -0.044311747 0.04306676 -0.094846286 -0.033111524 -0.0015139837
0.057447504 -0.06361979 0.05977463 -0.0834314 -0.0846362 0.0014760911 0.04389695 -0.101353444
0.04102606 -0.04620766 0.09382784 -0.040688474 0.13286561 -0.061802838 -0.067786135 0.08265607
0.026801001 -0.085269496 0.015691575 -0.05893478 0.08530832 0.021938851 0.041985914 0.095534645
-0.048507847 0.025147984 -0.073923394 0.11166686 -0.06556955 0.03560417 0.05446564 -0.08468054
-0.08252117 0.043862775 0.10364203 0.016713649 0.0022037989 0.009148458 0.09696161 -0.09312789
-0.10050424 -0.11478105 0.09557274 -0.044132143 0.044780307 0.10625232 -0.0467152 0.007279076
-0.030997306 0.026617361 -0.08143599 0.12345297 0.01606262 -0.0376685 0.029320626 0.05888401
0.09905912 0.089204274 -0.090708174 -0.08252055 -0.09586593 -0.042265344 0.037928794 -0.015778663
-0.03685535 0.002264976 -0.03480896 -0.019638108 -0.10536122 -0.04101721 0.07198848 -0.00069281994
-0.090375386 0.0109855225 -0.052657936 -0.050327796 -0.04631306 0.05315814 -0.12283155 -0.123251885
-0.11335082 -0.039288588 0.09332357 0.115512505 -0.09723426 0.024783105 -0.06047506 -0.011192347
-0.022154208 0.0604857 0.03788656 -0.11778721 -0.062825434 0.07327368 -0.026397513 -0.021281065
0.12607133 0.017014721 0.033860724 -0.07752017 -0.035613243 0.06427443 0.070132814 -0.08153029
0.110561825 -0.04209949 -0.092612036 -0.003742336 -0.11310405 0.080559336 0.08675748 0.02713089
0.06344725 -0.09663223 0.025143718 0.055073116 -0.00067068904 -0.05408299 -0.09632072 -0.12898637
0.03645757 -0.04250988 -0.08935701 0.033030525 -0.035283145 0.037708 0.06543331 0.039658573
0.016418904 0.0637844 -0.057151966 0.00034144276 -0.01428938 0.11282409 -0.035978805 0.064670846
-0.01784588 -0.053967 -0.052808903 0.07071138 0.019929128 0.08742965 0.11676734 -0.022946049
0.047674466 -0.08722281 0.051880684 0.09911165 -0.07304886 0.018862747 -0.08919664 0.0518804
0.06410739 0.0019112129 0.025933525 -0.017819954 0.0556157 -0.08213882 -0.120280914 -0.0024293785
-0.035867084 -0.028622158 0.10461911 0.044502236 0.09444908 0.010649783 0.028252611 -0.05809845
0.02833658 0.063705824 0.057764575 -0.06536352 -0.087507516 0.017680423 -0.032095626 -0.1093519
-0.09778981 -0.004004399 0.12093145 0.07692139 0.11907327 0.03714757 -0.049662292 0.09341833

class_embedder.2.bias f4 [64]
00000000: 656c 033e 0baf b1bd 6e76 89bd 35dc 7abd
00000010: 14f1 923c d165 b83d ce60 00be 3d5e 07be
00000020: 3aa8 00bd e9ed 4f3d 2c86 273d 67e6 813d
00000030: 93e9 5a3d b3c7 4a3c 1f2d 87bc 1fae 943c
00000040: 7f2e 6fbb e19a e8bd d3a1 abbc 08c0 ebbc
00000050: 1013 b13d 2bdd f73d 11c4 a4bd 7d36 6c3d
00000060: f598 e53d 58f4 133d d06a d33c 7dd0 183d
00000070: b684 91bd 7f04 c23a 4826 393d 82b4 a339
00000080: 7920 98bd efe3 b0bd 994d fd3c 8b20 85bc
00000090: 5799 dcbd bc44 86bd 61a5 b33d 45fb fabc
000000a0: 078b 98bd 6a7e e03d 3cd7 58bd df0f af3d
000000b0: 071f bebb da2c 03bd 5d98 cf3c d60f 8b3d
000000c0: 6ab7 95bd 5d5d 1a3d 1bf9 38bd 15f1 043d
000000d0: 484e 24bb 157c 463c af78 f5bd 257a d93d
000000e0: 63a1 e9bd 5413 3cbd 95a4 71b9 bdfe c0bd
000000f0: a536 de3c 0b6c 10bb b6b1 d63d 8758 bcbd
0.12834318 -0.08675965 -0.06712042 -0.061245162 0.01793722 0.09003795 -0.12536928 -0.13219543
-0.031410433 0.050764 0.04089944 0.06342774 0.05344541 0.012376714 -0.016501008 0.018149434
-0.003649622 -0.11357666 -0.020951187 -0.028778091 0.08646214 0.12102731 -0.08045209 0.05766915
0.11210815 0.036121696 0.025807768 0.037308205 -0.07105391 0.0014802365 0.045202523 0.00031224272
-0.07428069 -0.08637225 0.03092079 -0.01625087 -0.10771435 -0.06556079 0.08771778 -0.030637393
-0.07448392 0.109616116 -0.05293964 0.08547949 -0.0058020386 -0.032025196 0.025341207 0.0679013
-0.07310374 0.037686694 -0.04515944 0.032456476 -0.0025071073 0.012114544 -0.11985909 0.10619
-0.11407735 -0.04591687 -0.00023044863 -0.094235875 0.027125666 -0.0022037055 0.104831144 -0.09196573

initial_channel_projection.weight f4 [16, 1, 3, 3]
00000000: 5049 f63d 69c6 7f3c 21ad 11be c80b 8abe
00000010: d35a c3bd b696 d33d a15c 99be dc47 593d
00000020: 97ec 31be 862d 88bd 7ffe 2e3e 16fb 0ebe
00000030: 8718 87bd 08e6 d2bd eb04 843e df3a 403e
00000040: 0f47 f4bd ac53 ac3a e9ac 8d3e 3324 b73d
00000050: 09dc 873d a94a 42be edb2 863e 7383 10bd
00000060: c834 023e e306 773e 653c 463d eae0 17be
00000070: ea20 07be 1932 d6bd 92dd acbd e780 b3bd
00000080: 0bfa fabc 6eea 83be 7609 b63d 580a 8abe
00000090: e982 213d 9da0 2d3c f9be b03d c58d 7b3e
000000a0: 1711 8fbe f90a 60be cb20 65be ee5d 72be
000000b0: 3088 923c 982d 943e 1a66 053d acd3 debd
000000c0: 639f 993c 3c85 a6bc b691 093d 55b7 1cbd
000000d0: 9f79 b13e 2d55 a63e 89e3 463e 2096 713e
000000e0: df12 81be c5c0 a63e 89df 04be 2ca6 853e
000000f0: 54cb e43d 9968 b93e d645 93be 2b5e 9a3e
00000100: af2c b03e 72c0 883e 6100 fb3d 4ab2 2d3d
00000110: ea0f 26bd c85b bb3d ff34 94be f665 e63d
00000120: 58e2 9c3e 5dc5 6f3e 778c 503d 4f10 4a3e
00000130: ca24 d3be 3bf6 4dbe 63ce efbd ec9b 1b3d
00000140: 62a2 92be fe19 22be f9e9 eebd db03 f13d
00000150: 86b2 adbd c4b0 af3e 5664 95bd dbf7 b9bc
00000160: bd5e 853e 528d 8bbe f51f 76bd c3a3 6d3e
00000170: c833 85be 5778 a63e 6fc4 bb3e c90f 9e3d
00000180: 4912 7abc d177 9cbe 9632 83be eda1 6bbb
00000190: 6a7d 533e f7fc 89be cb08 bd3d a478 f03d
000001a0: b970 93be 84a9 d93c 2d5d 613e 318e 80be
000001b0: d162 5a3e ed00 7dbe 0b94 8d3e b11e 9c3e
000001c0: c899 903d a302 62be 922f 23bd 2ccc 9dbe
000001d0: d881 c1bd ab49 1f3e ace3 3dbe e056 063d
000001e0: 4b85 403e 3700 22be 9f3f 9c3e b0c2 173e
000001f0: ddd8 6b3e 9c9a a93d a9cf 413e b4a9 703e
00000200: 54e1 3b3e cd74 4fbd 156f b73e 9151 d23d
00000210: b86a 7b3e b1f2 ba3d 0174 7b3e b0b2 8c3e
00000220: 61cf 093d 4886 863e 99ee 71bd bce8 8e3e
00000230: 22f3 b83d eb49 87be c1c5 4c3e 25d3 8ebd
0.12025702 0.0156112695 -0.142262 -0.26962113 -0.09538808 0.1033148 -0.29953483 0.053047046
-0.17375408 -0.06649308 0.1708927 -0.13962969 -0.06596475 -0.10297781 0.25785002 0.18772458
-0.11927616 0.0013147495 0.27670982 0.08942451 0.06633765 -0.18973793 0.26308385 -0.03528161
0.12715447 0.24123721 0.04839744 -0.14831892 -0.1319615 -0.10458774 -0.08440699 -0.087648205
-0.030636808 -0.25764793 0.08888523 -0.26961017 0.039431486 0.010597375 0.08630175 0.245658
-0.27942726 -0.21879186 -0.22375791 -0.23668644 0.017887205 0.28941035 0.032568075 -0.10880217
0.01875276 -0.020327203 0.033586226 -0.038260777 0.34663102 0.3248686 0.19422735 0.23592424
-0.2520971 0.32568946 -0.12975897 0.26103342 0.11171594 0.36212614 -0.28764218 0.3014997
0.3440909 0.26709324 0.12255932 0.042406358 -0.04054252 0.09148365 -0.28946683 0.11249916
0.30641437 0.23415132 0.050915208 0.19732784 -0.41239005 -0.2011346 -0.11709287 0.037990496
-0.28639513 -0.15830228 -0.116657205 0.117683135 -0.08481316 0.3431455 -0.07294528 -0.022701195
0.26048842 -0.27256256 -0.06008907 0.23207001 -0.26016068 0.32513687 0.36673304 0.077178545
-0.015263149 -0.30560163 -0.25624532 -0.003595467 0.2065331 -0.2695081 0.09230193 0.117417604
-0.28796938 0.02657009 0.220082 -0.25108483 0.21326758 -0.24707384 0.2765201 0.30492166
0.070605814 -0.22071318 -0.03984029 -0.30819833 -0.09448594 0.15555446 -0.18543881 0.032797694
0.18800847 -0.15820394 0.3051729 0.14820361 0.23031946 0.082814425 0.18926872 0.23502237
0.18347675 -0.0506485 0.35826936 0.10269464 0.24552429 0.09128321 0.2455597 0.27480078
0.033645038 0.26274323 -0.059065435 0.27911937 0.09030749 -0.26423582 0.19997312 -0.069738664

initial_channel_projection.bias f4 [16]
00000000: 430a 843e 5852 28be 1d46 3e3e 9150 4bbe
00000010: 038d 65be 65fc 4f3e 7c0e 00bd b063 bebd
00000020: b38f 7fbd ab09 a7be bc68 91be 254c 1dbd
00000030: 675c 6e3e 1109 e3bd 3758 e4bd 5ca1 483e
0.2578908 -0.16437662 0.18581434 -0.19854952 -0.22417073 0.20311125 -0.031263813 -0.09296358
-0.0623929 -0.32624564 -0.28400218 -0.038402695 0.23277436 -0.11085714 -0.11149638 0.19592804

encoder_blocks.0.conditioning_projection.weight f4 [32, 128]
00000000: e19a 863c aabb 00be 9184 2dbd 9ed8 98bd
00000010: 22cb c6bc 43f5 08bd c753 9ebd 9e95 af3d
00000020: 18c3 203d 2ecc a7bc 09b2 f7bc b081 953d
00000030: 6915 933d a0f6 cebd 5bf0 473d 4567 453d
00000040: 7642 87bd 8678 f4bc 067a b33d f884 053d
00000050: 0668 ddbd dccb d53d 77bd 153d 4e5a 633d
00000060: 9709 9d3d 8020 90bd bff6 27bd ecfa 67bd
00000070: 9736 d53c 5f61 38bc 506a 173c e065 8b3d
00000080: 0fbe f6bb ea3c a6bc d4d8 a7bd 0ba1 5dbc
00000090: f2cb 63bb 50fb 7f3d 9c68 7ebc 2bec 70bd
000000a0: da71 4abd 172f 94bb 5622 71bc 5823 42bd
000000b0: a639 e7bd dafe efbb f19a ae3b 16af 7ebd
000000c0: 48ae 86bd eb49 c4bc dbb8 b6bd 5ebb 08be
000000d0: 6b9d f93c 1db0 0dbc 3fcb a7bd ce97 913d
000000e0: 4ff7 dcbd 4565 c43c 7088 ccbd 75de 353d
000000f0: 8fd3 b33d 845d f43c a4fe 1c3c 1395 9ebd
00000100: 3117 903d 49af 2a3d 1d9b 0e3c b94f 553b
00000110: 5efd 98bd a9e0 853c 958a 4f3c df1d 87bd
00000120: 8dd3 bebd 92da d23c 006b b13d 5546 87bd
00000130: adc6 a13d 7aa2 af3d eb58 c13b 3f9a 3cbd
00000140: bcef f7bc c833 a83d 8f37 083c 4e75 9d3d
00000150: 78ff e43c 664c 913d d836 d23c 2423 30bd
00000160: adf5 27bd 48f6 863d ced1 883b b367 903c
00000170: ed87 093d 06b2 543d d865 0d3d 75a0 34bd
00000180: 01ae 50bb f38e 0e3c 9a87 eabc f2f1 2c3d
00000190: bf1d 113d 3711 603d f8ea fabc 48d3 7a3d
000001a0: 7557 7b3d e4e9 de3c 7eec b5bd 13b9 26bd
000001b0: 6184 a3bd 26f8 e8bc 1765 1ebd 3ab9 a0bc
000001c0: 9e78 0b3d 31fa 99bd 4e28 5f3d 20db ca3c
000001d0: e4bd 1dbd f373 ac3c 514a 373d 1545 773d
000001e0: 3a1b ff3b 0709 20bb bc6d 7ebd 2fa9 9c3d
000001f0: 8f15 843d eacf 273c aeaa 58bd 9534 843c
00000200: da46 673d e8ef 0dbd 62e1 883d 59ed 27bd
00000210: 6b6d c53d 60f4 4c3d aca9 c139 481b 87bc
00000220: 8fcb 87bb 0c58 2fbd 18a5 bfbd 2669 e5bb
00000230: 4274 6dbd 4e29 62bd 89be 2ebd 0e26 eb3a
00000240: 8a34 e7bc 923e 403c e775 41bd f630 1c3d
00000250: 3829 fc3c 85b1 883a aa41 0d3c 67d7 59bc
00000260: 318d 44bd f503 e7bc b060 b3bd 07f6 253d
00000270: 69aa 773c 5022 f83c f9c5 cf3b c79f 00bd
00000280: 19b6 e83c faec 443b e4a7 0cbd 16fe 36bd
00000290: 5dfe 8ebd 2a6f 603d c7af 6b3d ffde 6abd
000002a0: 8f8d e8bc 564a 62bd c68d 3c3d 91eb a43d
000002b0: e699 9ebd 91b8 04bd b6c3 ad3d 5ce6 e73b
000002c0: a9ca 94bd a6dd 8f3d cf12 5d3c 52e9 26bc
000002d0: 3d61 bb3d 6ffa a7bc 987c 873d 0e67 3fbc
000002e0: 54ec 7ebd 5682 af3c 9141 133d d2c6 963d
000002f0: de62 3fbd 3f68 8cbd e99b ad3d bc53 33bd
00000300: 2ee6 2f3d cf23 863d 6c97 31bc b61f 47bb
00000310: 7e20 4c3c e129 fabb 891b a23d 3a5e d43c
00000320: 962b 81bd b563 b03d a1e8 97ba 6de8 953d
00000330: 6bca 27bd 3ba0 c53d 9891 8bbd e756 68bd
00000340: e0d0 a3bd ea7f 4d3d 4d79 143d 35b9 4fbd
00000350: ed13 373d 398c 81bc e079 d6bb 7aa8 1c3d
00000360: ba0e 0b3d 918c e8bc 6e2c 78bd b4a6 e2bc
00000370: 9d04 27bd 8f9c 593d c86b 0a3c 95a9 ce3d
00000380: 1ad5 f8bc 3ac2 e3bc eaeb 90bc 3778 903d
00000390: 29d4 a13a 621a 37bc 4808 893d 3ee9 403d
000003a0: 423e 553d 4535 bf3d 180b a33d 7a55 a9bd
000003b0: cd9c 263d 4e7a c1bc 6377 193d 2097 10bd
000003c0: c47f 0abc 18cd 2b3d e153 c23b b9fe 4abd
000003d0: cbf4 3abd 7f9d 313a acb7 12bd 1f7d 0f3d
000003e0: 550e 92bd a6a8 52bd f086 2cbd 3929 a8bd
000003f0: 76d9 aabd 2ba4 383c b86e 6abd 372c 6a3d
0.016431274 -0.12571588 -0.042362753 -0.074631914 -0.024266783 -0.033437025 -0.07730823 0.08573459
0.039248556 -0.020483103 -0.030236261 0.073001266 0.07181818 -0.10105634 0.048813205 0.04819419
-0.06604473 -0.029842626 0.087635085 0.032597512 -0.108108565 0.10439274 0.03655764 0.055506043
0.07667845 -0.07037449 -0.0410068 -0.056635782 0.026027007 -0.011253684 0.0092416555 0.068065405
-0.007529981 -0.020292718 -0.081956536 -0.013527165 -0.0034759012 0.06249553 -0.0155278705 -0.058818977
-0.049424984 -0.004522215 -0.014717659 -0.047396988 -0.112902924 -0.007324082 0.005328529 -0.062178694
-0.0657621 -0.023961028 -0.08921977 -0.13352725 0.03047057 -0.008647946 -0.08193063 0.071090326
-0.10789358 0.02397407 -0.09986961 0.044401605 0.08780586 0.029829748 0.009582195 -0.077432774
0.070356734 0.04167107 0.008703974 0.003254874 -0.07470201 0.016342478 0.012667318 -0.06597494
-0.09317694 0.025738988 0.08662987 -0.06605212 0.078992225 0.08575912 0.0059004924 -0.046045538
-0.030265681 0.082130015 0.008314027 0.0768839 0.027953848 0.0709465 0.025660917 -0.043002263
-0.04100578 0.06589943 0.0041754013 0.017627573 0.033576895 0.05192759 0.034520954 -0.044098336
-0.0031841996 0.008701074 -0.028629113 0.042222925 0.03542876 0.054703917 -0.03062962 0.06123665
0.061362702 0.027211137 -0.08882998 -0.040703844 -0.07984234 -0.028438639 -0.038670626 -0.019619573
0.034050576 -0.07518423 0.054481797 0.02476269 -0.038511172 0.021051383 0.044748608 0.060368616
0.007785228 -0.0024419443 -0.06211637 0.07649457 0.064494245 0.010242442 -0.052897148 0.016138354
0.056464054 -0.03465262 0.06683613 -0.040997837 0.096400104 0.05003774 0.00036938244 -0.0164925
-0.004144139 -0.042808577 -0.09357661 -0.00700106 -0.0579722 -0.055215172 -0.042662177 0.0017940418
-0.028223295 0.011733668 -0.04723158 0.03813263 0.030781373 0.0010428882 0.008621613 -0.013295985
-0.047986213 -0.028200129 -0.08758676 0.040517833 0.015116313 0.030289799 0.006340739 -0.031402376
0.028407143 0.0030048476 -0.0343398 -0.04467591 -0.0698211 0.054793514 0.05754068 -0.057341572
-0.028387813 -0.055246674 0.046033643 0.08052743 -0.077441975 -0.03240258 0.084845945 0.0070770215
-0.07265217 0.07024698 0.013493254 -0.010187464 0.09149406 -0.020505158 0.06615561 -0.011682285
-0.0622371 0.021424454 0.0359512 0.07362141 -0.046725146 -0.06855821 0.08477003 -0.043781027
0.042944126 0.06549799 -0.010839324 -0.0030383891 0.012458919 -0.007634387 0.07915408 0.025923837
-0.063071415 0.086127676 -0.0011589715 0.07319722 -0.040964525 0.09649702 -0.06814879 -0.0567235
-0.07998824 0.050170816 0.036248494 -0.050713737 0.044696737 -0.015813934 -0.0065452904 0.03824661
0.03394959 -0.02838734 -0.060589246 -0.02766738 -0.040775884 0.05312782 0.008448549 0.10090939
-0.030375052 -0.027802575 -0.017690618 0.07054179 0.0012346554 -0.011175724 0.06691033 0.047097437
0.052061327 0.09336332 0.079611 -0.082682565 0.04067688 -0.02361789 0.03746737 -0.035300374
-0.008453313 0.04194364 0.0059304093 -0.04955933 -0.04564361 0.0006775483 -0.035819694 0.035031434
-0.0713164 -0.051430367 -0.042120874 -0.082109876 -0.08342259 0.011269609 -0.057234496 0.057171073

encoder_blocks.0.conditioning_projection.bias f4 [32]
00000000: b41e 28bc 0cfd 10bc 9fbc 913d 79bf 0bbd
00000010: 9157 ea3c d254 4c3d c238 873b cb8c 2fbc
00000020: 8b97 623d 1c13 80bd 51bf 03bd 2f42 7abd
00000030: 9fad 3abd e963 3a3d 5ad9 983d 1a27 863d
00000040: 964b 26bc 8117 70bc b310 2e3d 58df 62bd
00000050: 735b 74bd 6182 33bd f34b 91bd e0f6 9e3c
00000060: fd5e 9cbc b782 f9bc d7a0 b3bd c649 b53b
00000070: 3da4 66bd 3de2 10bd a83f 27bd 5673 9dbc
-0.010261226 -0.008849394 0.07116055 -0.03411815 0.028606208 0.04988558 0.004126639 -0.01071472
0.055320304 -0.06253645 -0.032164875 -0.061098274 -0.045575734 0.045505438 0.074633315 0.06550427
-0.010149857 -0.014654041 0.042496394 -0.05538878 -0.059657525 -0.04382551 -0.07094564 0.019404829
-0.019088263 -0.030457838 -0.08770912 0.005532476 -0.056308974 -0.035372008 -0.04083219 -0.019220036
